AI/Image-Generation/PGGAN/model/8x8/discriminator_model/fromrgb_layers_0.pt (torch, 2187 bytes, 2 tensors)

bias f4 [128]
-0.6122417 -0.3822306 -0.36453673 -0.36277622 -0.3765262 0.2992543 -0.10981991 0.2949834
-0.48073858 -0.47899196 -0.7339543 0.40166026 -0.3411298 0.24534263 0.16901344 0.4359056
-0.63811547 -0.11929867 0.36953047 -0.694567 0.28883976 -0.20789157 0.1732303 0.40105063
0.26890677 -0.45509732 -0.42789862 -0.64317584 -0.41634125 0.35317335 0.11901584 -0.053400245
0.16615357 -0.001969324 -0.03633688 0.06908717 -0.6247955 0.37769753 0.36548376 -0.1572954
-0.4673039 -0.49710134 0.31904954 -0.6322668 -0.022860149 -0.42359298 -0.3051458 -0.40418786
-0.56587636 0.093460485 -0.47821552 0.2103648 0.29237244 0.13125776 0.40128252 0.21290663
-0.29501444 0.2019642 0.43420994 0.5164601 -0.39887553 -0.41268098 -0.007957372 -0.43012986
0.23628913 -0.33361998 -0.69386053 0.2641871 0.2379678 -0.5214012 0.49871275 -0.49628386
0.06317392 -0.4035673 -0.36507875 0.17837042 0.22092575 -0.5167734 -0.23627877 0.19632933
-0.37348884 -0.40682012 0.27229786 -0.117469996 0.10555425 -0.21826035 0.32736826 -0.4699485
-0.34090245 0.0016753766 -0.34731042 0.21864212 0.2913576 -0.4856394 -0.46944267 0.21625412
0.2667059 -0.16735266 -0.4693387 0.5349345 0.5679367 -0.42943442 0.22420749 -0.5611312
-0.56126773 0.7162174 -0.37850234 -0.5069088 -0.18488029 -0.17100818 -0.38258618 -0.43178844
0.23184302 0.5288866 0.37579212 0.3700106 0.28611717 0.3081917 0.10394498 0.27777573
0.2561772 -0.30152443 -0.39615706 0.16073582 0.19900249 0.317897 0.4224337 0.118481874
00000000: dfbb 1cbf bbb3 c3be 8fa4 babe cebd b9be
00000010: 0bc8 c0be dc37 993e 43e9 e0bd 1008 973e
00000020: 5e23 f6be 6f3e f5be 6ee4 3bbf 6aa6 cd3e
00000030: 91a8 aebe 193b 7b3e dc11 2d3e 052f df3e
00000040: 895b 23bf dc52 f4bd 1933 bd3e 25cf 31bf
00000050: cee2 933e 87e1 54be 4963 313e 8256 cd3e
00000060: 26ae 893e 8402 e9be 8715 dbbe 2ca7 24bf
00000070: ae2a d5be 23d3 b43e 94be f33d 37ba 5abd
00000080: 2924 2a3e c60f 01bb fbd5 14bd 937d 8d3d
00000090: 99f2 1fbf 9261 c13e b020 bb3e 0c12 21be
000000a0: 7542 efbe 1184 febe 765a a33e 3ddc 21bf
000000b0: 3545 bbbc 2ee1 d8be 123c 9cbe b6f1 cebe
000000c0: 46dd 10bf 3668 bf3d aad8 f4be df69 573e
000000d0: d7b1 953e 6f68 063e e774 cd3e 3204 5a3e
000000e0: 220c 97be b4cf 4e3e c450 de3e bb36 043f
000000f0: 6a39 ccbe ec4a d3be a35f 02bc fb39 dcbe
00000100: c7f5 713e 3dd0 aabe d8a0 31bf 8843 873e
00000110: d5ad 733e 8d7a 05bf 4757 ff3e eb18 febe
00000120: 5461 813d 60a0 cebe 9aeb babe bca6 363e
00000130: 5c3a 623e 434b 04bf 10f3 71be 8e0a 493e
00000140: ee39 bfbe ba4a d0be a06a 8b3e 1c94 f0bd
00000150: d42c d83d a47f 5fbe d09c a73e 179d f0be
00000160: c48a aebe 4f98 db3a acd2 b1be b8e3 5f3e
00000170: d32c 953e baa5 f8be ca5a f0be b871 5d3e
00000180: ad8d 883e 7f5e 2bbe 294d f0be 78f1 083f
00000190: 4d64 113f d4de dbbe a696 653e 4ba6 0fbf
000001a0: 3eaf 0fbf 065a 373f 0fcb c1be c6c4 01bf
000001b0: 4251 3dbe c51c 2fbe 56e2 c3be 6013 ddbe
000001c0: 4268 6d3e 1d65 073f d367 c03e 0872 bd3e
000001d0: f37d 923e 4dcb 9d3e 1be1 d43d 9f38 8e3e
000001e0: a829 833e 6961 9abe 19d5 cabe ee97 243e
000001f0: 4fc7 4b3e 65c3 a23e 3b49 d83e a0a6 f23d

conv.weight f4 [128, 1, 1, 1]
1.9286125 0.3455684 1.4036382 0.6722686 0.7622229 -1.2494768 0.0998004 -0.60750926
0.4814203 0.6993301 2.4134438 -0.7987706 0.5784725 -0.49407187 -0.42696851 -1.4862283
1.6134144 0.07131178 -1.6096056 2.097877 -1.1942421 0.37919784 -2.289027 -1.5678198
-0.565207 0.9349901 1.4164423 2.3586912 0.7315333 -1.8532207 -1.2363315 0.005599257
-0.23460044 -0.043591272 0.011702898 -0.16656132 1.7676015 -0.6830351 -1.3727263 0.32713926
1.1746749 0.87394327 -0.99027395 1.1861545 -0.06497059 0.7908799 0.6890116 0.7226061
1.509741 -2.469829 0.8123477 -1.0355054 -0.30863267 -0.6242911 -1.0386876 -1.0382305
0.8623257 -1.593115 -2.3264902 -2.40253 0.61327934 1.5228038 -0.030149886 0.82232344
-0.60278445 0.8738482 1.6200728 -1.5208001 -0.42970365 1.3053044 -1.967686 1.2070876
-0.34824905 0.8482087 0.5308951 -0.53329986 -1.0758296 1.1058571 0.25340492 -0.43858856
0.51648176 0.52166784 -0.6017957 0.091980815 -0.26522416 0.1926393 -1.1839834 1.9296265
1.4974799 -0.054073464 0.6606001 -1.0462323 -1.26254 1.6216377 1.0395459 -0.77876014
-1.3283137 0.14175351 1.932136 -1.4255575 -1.420891 0.9913356 -0.3284137 0.6972475
0.943576 -2.0677965 1.4194181 1.2167386 0.20100133 0.22744866 0.64753556 1.1449467
-0.91403884 -1.8610388 -1.3773775 -0.7501152 -0.6424266 -0.6190177 -0.3775086 -0.99945414
-1.0445224 0.66039044 0.9824767 -0.22632164 -0.37686896 -1.4349191 -1.0420675 -0.46280318
00000000: c6dc f63f 57ee b03e 6baa b33f cc19 2c3f
00000010: 0a21 433f dbee 9fbf 2764 cc3d ba85 1bbf
00000020: b97c f63e 4c07 333f dd75 1a40 3b7c 4cbf
00000030: c616 143f fdf6 fcbe 9e9b dabe bb3c bebf
00000040: 5d84 ce3f e90b 923d 8e07 cebf 9e43 0640
00000050: eddc 98bf 3826 c23e 6b7f 12c0 52ae c8bf
00000060: 68b1 10bf 835b 6f3f fb4d b53f ccf4 1640
00000070: c445 3b3f 5636 edbf 1c40 9ebf f979 b73b
00000080: 193b 70be c38c 32bd 83bd 3f3c 0d8f 2abe
00000090: c440 e23f 63db 2ebf 7fb5 afbf cc7e a73e
000000a0: bf5b 963f bfba 5f3f 9882 7dbf e9d3 973f
000000b0: 4d0f 85bd 1b77 4a3f 1063 303f b7fc 383f
000000c0: 313f c13f ae11 1ec0 05f6 4f3f 718b 84bf
000000d0: 1a05 9ebe 8bd1 1fbf b7f3 84bf bde4 84bf
000000e0: 61c1 5c3f 31eb cbbf 37e5 14c0 0dc3 19c0
000000f0: e0ff 1c3f 3ceb c23f e5fc f6bc ca83 523f
00000100: 1550 1abf 84b4 5f3f 8c5e cf3f 94a9 c2bf
00000110: 1e02 dcbe 3714 a73f 23dd fbbf d981 9a3f
00000120: b34d b2be 3524 593f bee8 073f 5786 08bf
00000130: c9b4 89bf ba8c 8d3f 4abe 813e ae8e e0be
00000140: 2638 043f 068c 053f 480f 1abf 7060 bc3d
00000150: 76cb 87be 3d43 453e c58c 97bf 00fe f63f
00000160: 6cad bf3f 237c 5dbd 171d 293f f1ea 85bf
00000170: e99a a1bf d391 cf3f d70f 853f d35c 47bf
00000180: 2f06 aabf d527 113e 3c50 f73f ab78 b6bf
00000190: c2df b5bf 2bc8 7d3f d725 a8be d07e 323f
000001a0: 328e 713f c756 04c0 7eaf b53f 17be 9b3f
000001b0: 4bd3 4d3e 4de8 683e e4c4 253f 9d8d 923f
000001c0: 73fe 69bf 8536 eebf e84d b0bf 8d07 40bf
000001d0: 1276 24bf f277 1ebf cf48 c1be 3adc 7fbf
000001e0: e9b2 85bf 590f 293f 9883 7b3f dcc0 67be
000001f0: f8f4 c0be 6eab b7bf 7862 85bf 8af4 ecbe
