AI/Image-Generation/PGGAN/model/8x8/discriminator_model/fromrgb_layers_1.pt (torch, 2187 bytes, 2 tensors)

bias f4 [128]
0	0x3e9d7001	0.30749515
1	0x3e6af2d4	0.22944194
2	0x3d819a3a	0.063282445
3	0xbe4c4add	-0.19950433
4	0xbd72a1bb	-0.05923627
5	0xbe5ecbea	-0.21757475
6	0xbe7fa53d	-0.24965377
7	0x3db9feb6	0.090817854
8	0x3e27e8de	0.16397426
9	0xbe32a176	-0.17444405
10	0xbe21ff5c	-0.15820068
11	0xbd9c5e01	-0.07635117
12	0x3eae1ea1	0.34007743
13	0xbe3656f5	-0.17806609
14	0xbdb7d209	-0.08975608
15	0xbdbe7351	-0.092993386
16	0x3e0e3e60	0.13890982
17	0x3db2c8a1	0.08729673
18	0xbceaa5a1	-0.028643431
19	0xbe8f3700	-0.2797165
20	0x3e61b57b	0.22041886
21	0x3e182ea9	0.1486155
22	0x3e3f57ff	0.18685912
23	0x3bf45d8b	0.0074574403
24	0xbc32e611	-0.01091911
25	0x3ae387f5	0.0017359244
26	0xbef7b101	-0.4837723
27	0xbe6360e0	-0.22204924
28	0xbd620b3e	-0.055186503
29	0x3e0b02bb	0.1357526
30	0xbe5fb142	-0.21844962
31	0xbe34dedd	-0.1766314
32	0xbd92eab2	-0.07173671
33	0x3dbaac66	0.09114914
34	0xbe5ffe94	-0.21874458
35	0xbd98c86c	-0.074601024
36	0xbe2bb8b7	-0.16769682
37	0x3e8c19a1	0.27363303
38	0xbeaf9f86	-0.34301394
39	0xbc9b6979	-0.018971192
40	0xbc52e5c0	-0.0128721595
41	0xbd519960	-0.05117166
42	0x3e800a85	0.25008026
43	0xbe6758b5	-0.22592433
44	0xbe5155dd	-0.2044291
45	0xbe6dee00	-0.23235321
46	0xbe785d90	-0.24254441
47	0x3ddb5060	0.1070869
48	0xbdcd85be	-0.10035275
49	0xbe6c71a6	-0.23090228
50	0x3e6f7962	0.23386148
51	0xbdf95df3	-0.121761225
52	0xbe17dcf7	-0.14830385
53	0xbee04d12	-0.438088
54	0xbcf9ff86	-0.03051735
55	0xbe37a801	-0.17935182
56	0xbe86551e	-0.26236814
57	0xbc8016dc	-0.0156359
58	0x3ed52a61	0.41633895
59	0xbe82f3f6	-0.25576752
60	0xbdf5c8d5	-0.12001196
61	0x3e50fe86	0.20409593
62	0x3cddd3ef	0.027078597
63	0x3ec20e44	0.3790151
64	0x3daeb48e	0.08530532
65	0x3da3182c	0.07963595
66	0x3ec85b8e	0.3913235
67	0x3cff8435	0.03119097
68	0x3ddca650	0.10773909
69	0xbe360243	-0.177743
70	0xbd0a80c8	-0.03381422
71	0x3e7e3dc1	0.24828245
72	0xbe3d84b9	-0.18507661
73	0x3d54f448	0.051990777
74	0xbdba89c1	-0.09108306
75	0x3c739560	0.014867157
76	0xbe4c11ff	-0.1992874
77	0xbdfbe8c1	-0.12300254
78	0xbe65a3a1	-0.224257
79	0x3e325e5d	0.17418809
80	0xbde04b05	-0.10951809
81	0x3dcd4f10	0.100248456
82	0xbd95a2c6	-0.07306437
83	0xbdb9a57c	-0.09064767
84	0xbe0ca6f9	-0.1373557
85	0x3db208ca	0.08693083
86	0xbe5f6766	-0.21816787
87	0x3ca1cc61	0.019750776
88	0xbe044e48	-0.12920487
89	0xbce85346	-0.02836002
90	0x3eda21f0	0.42604017
91	0x3eb0b37f	0.34511945
92	0xbe910986	-0.28327578
93	0xbea62127	-0.32447168
94	0xbe4d20f6	-0.20032105
95	0xbdb16910	-0.08662617
96	0xbe0fa051	-0.14026
97	0x3e932ce2	0.2874518
98	0xbe0eea96	-0.13956675
99	0x3e629502	0.22127154
100	0xbe81681c	-0.25274742
101	0xbd028840	-0.03186822
102	0xbe6091ee	-0.21930668
103	0x3d402a63	0.046915423
104	0x3d21ed29	0.039532814
105	0xbe97ce12	-0.29649407
106	0xbe09d463	-0.13459925
107	0xbe49f9db	-0.19724219
108	0xbe769f60	-0.24084234
109	0x3e468e4f	0.19390224
110	0xbde0b336	-0.10971682
111	0xbecd5038	-0.40100265
112	0xbde04b9a	-0.1095192
113	0xbdc09312	-0.094030514
114	0xbd55e175	-0.052216966
115	0x3e8648be	0.26227373
116	0xbe02525a	-0.12726727
117	0xbed303f4	-0.41213953
118	0xbd9f9868	-0.07792741
119	0xbe6199b8	-0.22031295
120	0x3c1491d9	0.009067976
121	0xbd5e5e3a	-0.05428908
122	0xbe26a80c	-0.16275042
123	0x3eab723c	0.3348559
124	0xbd36b0e3	-0.044602286
125	0x3ead5b7e	0.33858865
126	0x3b8afbd2	0.004241445
127	0x3d972855	0.073807396

conv.weight f4 [128, 1, 1, 1]
0	0xbf170315	-0.5898908
1	0xbf0c37df	-0.5477275
2	0xbef13f2e	-0.47118515
3	0x3e71d770	0.23617339
4	0xbe2c25a4	-0.16811234
5	0x3e78b070	0.24286056
6	0x3fa99cd5	1.3250986
7	0xbf002316	-0.50053537
8	0xbf27b35f	-0.65508074
9	0x3f516783	0.8179857
10	0x3f63622f	0.8882169
11	0x3eeed75e	0.46648687
12	0xbf969b0b	-1.1766065
13	0x3ec459dc	0.38349807
14	0x3f8b44f4	1.0880418
15	0x3f683089	0.9069906
16	0xbf900052	-1.1250098
17	0xbecc84d3	-0.39945087
18	0x3b80e9cb	0.0039341203
19	0x3f596164	0.8491423
20	0xbfeb0d19	-1.8363372
21	0xbf3a634b	-0.7280776
22	0xbf0e7c14	-0.5565808
23	0x3f5c0b80	0.8595505
24	0x3ee293af	0.442533
25	0xbfdffaa4	-1.7498364
26	0x3fea8250	1.8321018
27	0x3e8c47b8	0.27398467
28	0xbf0da2be	-0.5532645
29	0xbef5f335	-0.48037115
30	0x3f1a3c8c	0.6024864
31	0x3eeb92ec	0.4601053
32	0x3f1ced4a	0.61299574
33	0x3d6a76b0	0.057242095
34	0x3f51c98d	0.8194817
35	0x3e93424a	0.28761512
36	0x3fb78fd1	1.4340764
37	0xbfaaf7a3	-1.3356823
38	0x3f889b64	1.0672421
39	0x3f6c21b6	0.9223894
40	0x3f8995d6	1.0748851
41	0x3f8d3e52	1.1034644
42	0xbedd144f	-0.43179557
43	0x3ee6bcba	0.45065862
44	0x3ee12677	0.4397466
45	0x3f5ac122	0.8545095
46	0x3f64fcff	0.8944854
47	0xbf81fd37	-1.01554
48	0x3ebff961	0.37494949
49	0x4035597e	2.8335872
50	0xbf080a20	-0.5314045
51	0xbcbc83b6	-0.023012023
52	0x3ea0a661	0.31376937
53	0x3fcad998	1.5847654
54	0x3bf26f6c	0.0073985364
55	0x3f817737	1.0114506
56	0x3ea5f0c8	0.32410264
57	0x3eda1b49	0.42598942
58	0xbf8513a3	-1.0396618
59	0x3ebba248	0.36647248
60	0x3f948d3f	1.1605605
61	0xbfedd976	-1.8581989
62	0x3ecf44a6	0.40482062
63	0xbf54e5fd	-0.83163434
64	0xbfe3a4be	-1.778465
65	0xbd932c1a	-0.07186146
66	0xc01d01ef	-2.453243
67	0x3f6ecb1b	0.93278664
68	0xbef4d7c4	-0.47820866
69	0x3dc89533	0.097940825
70	0xbf0686b8	-0.52549314
71	0xbf4eb47e	-0.8074416
72	0x3f821070	1.0161266
73	0xc016043a	-2.344008
74	0x3d1a4410	0.037662566
75	0xbf968c41	-1.1761552
76	0x3e13a1a5	0.14417131
77	0x3d0f77eb	0.035026472
78	0x3fb862da	1.4405167
79	0xbf810b9c	-1.0081668
80	0x3d32aa7b	0.043619614
81	0xbedf9370	-0.43667173
82	0x3f008f98	0.50219107
83	0x3f3227ed	0.6959217
84	0x3e947908	0.2899859
85	0x3e357b02	0.17722705
86	0x3dd7d752	0.10539116
87	0xbf8cef00	-1.1010437
88	0x3dc2693e	0.094927296
89	0x3f49909a	0.7873627
90	0xbf493241	-0.78592306
91	0xbf89368e	-1.0719774
92	0x3fde1e5c	1.7353015
93	0x3e6c03d7	0.2304834
94	0x3efbb3c8	0.491606
95	0xbe8c9d4c	-0.27463758
96	0x3e535bc7	0.20640479
97	0xc0061969	-2.095301
98	0x3d093ab7	0.03350326
99	0xbfb60b29	-1.4222156
100	0x3fab2dde	1.3373373
101	0x3e6fe2ce	0.23426363
102	0x3ee58db5	0.44834676
103	0xbf978319	-1.1836883
104	0xbf2332c1	-0.6374932
105	0x3f04daeb	0.5189654
106	0x3f38b3b3	0.721492
107	0x3f32f839	0.6991001
108	0x3ee61a95	0.44942155
109	0xbd3601c8	-0.044435292
110	0x3f104b68	0.5636506
111	0x3f94fe21	1.1640054
112	0x3f0132f0	0.5046835
113	0x3ef832d2	0.48476273
114	0x3fada33a	1.3565438
115	0xbfbe2e23	-1.485783
116	0x3e8c505b	0.27405056
117	0x3feb2788	1.8371439
118	0x3dc8dc55	0.0980765
119	0x401fe2c2	2.4982152
120	0xbe49ccfd	-0.19707103
121	0x3ed3a83e	0.41339296
122	0x3e851c6d	0.2599825
123	0xbf41fa33	-0.757724
124	0xbb350ffd	-0.0027627938
125	0xbfdab6bb	-1.7087015
126	0xbffe5706	-1.9870307
127	0x3ec273f5	0.37979093
