AI/Image-Generation/PGGAN/model/64x64/discriminator_model/fromrgb_layers_1.pt (torch, 2187 bytes, 2 tensors)

bias f4 [128]
000000 76 90 4e 3b 20 b3 4a bd ac 39 14 3d bc 16 c0 bb
       0.003151921 -0.049487233 0.036187813 -0.005862085
000010 99 f9 82 bd 2d 94 2d 3d 40 28 a3 bd a2 f9 e5 bd
       -0.06395263 0.04237764 -0.079666615 -0.11229254
000020 ea 5e 6c be 2a 4d da bd d5 5a 2b be 5e 35 1d be
       -0.23083082 -0.10659249 -0.16733868 -0.15352389
000030 6a b0 01 be 23 2b 3f bb a1 8d 23 be 07 cd a6 bd
       -0.12664953 -0.0029169999 -0.15971996 -0.081445746
000040 92 0a 9f be 57 71 7d bd 70 85 bb 3b 7f 9b 76 bb
       -0.31062752 -0.061875667 0.005722694 -0.0037629304
000050 90 44 a9 bd 3c b8 25 bc ae 56 b6 bc 65 e1 a7 bb
       -0.082650304 -0.010114726 -0.022258129 -0.0051233047
000060 a3 be 02 bd f8 a6 8b bd bd fe 2e bb a8 78 33 be
       -0.031920087 -0.06818956 -0.0026702129 -0.17526495
000070 db 36 bc 3d b3 60 5e bc 93 74 a7 bc f3 4d 99 bb
       0.0919015 -0.01357286 -0.02044133 -0.0046784817
000080 60 85 5f bc 8e 0d 4a 3d 50 eb 88 3c a5 20 42 be
       -0.013642639 0.049329333 0.016713768 -0.18957765
000090 d1 fc 5f be b5 69 e6 3d b2 d3 3b bc 30 8a ea bd
       -0.21873786 0.11250631 -0.011464046 -0.114521384
0000a0 a4 56 16 3d 0f 8a 2e bd 56 4c fc bc cd 95 f9 bd
       0.03670372 -0.04261213 -0.030798119 -0.12186775
0000b0 6a 06 fb bb 04 76 81 3c cf cd 5d be 14 57 0c be
       -0.0076606767 0.015803345 -0.21660541 -0.13705093
0000c0 c7 17 5d be 96 2e 4a be 61 d4 e4 bd e7 eb 20 be
       -0.21591102 -0.19744334 -0.111733206 -0.1571499
0000d0 e6 8a b7 3c af f2 bc 3d 65 6c ed bb 78 af 63 3c
       0.0224051 0.09225976 -0.0072455877 0.0138968155
0000e0 8c ac 07 be 40 e4 02 3d a1 20 b8 bc 9c e8 3a be
       -0.13249415 0.031955957 -0.022476496 -0.18252796
0000f0 70 3a bf 3d 0c 9f 29 bd 7e 22 f0 bd 70 02 e6 bd
       0.09337318 -0.041411445 -0.11725329 -0.11230934
000100 6f 67 2d bc 0b db e8 bd eb 43 45 be d0 dc bb 3c
       -0.0105837425 -0.11369904 -0.1926419 0.02293244
000110 a1 50 ba bb af 19 15 bc 0f 27 74 3c 85 9c a3 bd
       -0.0056858812 -0.009100362 0.01490189 -0.07988838
000120 af b9 18 be 2e 2c 97 bc 09 32 23 3c f7 f6 6c 3b
       -0.14914583 -0.018453684 0.00996066 0.0036157945
000130 75 b7 bf bc 64 80 c3 b9 6e f5 0b 3e 8f a6 7c 3b
       -0.023402909 -0.00037288957 0.13667843 0.0038551425
000140 2a c4 9c 3c 74 cf 82 be 4b 91 be ba ca c9 24 3c
       0.019136507 -0.255489 -0.001453915 0.010057876
000150 b1 aa 64 3d 2a 66 f5 bc b8 45 67 3d 19 48 45 3d
       0.055826847 -0.029955942 0.056462973 0.04816446
000160 4f 24 26 bd 5d 3c b0 3b 8c e6 23 3e 5f f4 a8 bb
       -0.04056197 0.0053782896 0.16005915 -0.0051560844
000170 26 90 02 be 98 be cb bd e5 f4 12 be 58 d9 5c 3c
       -0.12750301 -0.09948462 -0.14351232 0.013479553
000180 23 77 33 be 75 a3 9b 3d 67 99 8d 3c 13 05 3a bd
       -0.17525916 0.07599536 0.017285062 -0.045414995
000190 1f fc d9 3d 18 6c 82 bc 4d 77 67 bd 2c 99 bd bb
       0.106437914 -0.015920684 -0.05651026 -0.005786082
0001a0 06 bc 9d bc a0 89 1a be 64 5a db bd 95 2d 86 3d
       -0.019254696 -0.15091562 -0.107106 0.06551663
0001b0 ca 5c 7e bb 81 82 0f be 31 00 92 3d 96 86 50 be
       -0.003881263 -0.14014627 0.07128943 -0.2036384
0001c0 e1 8d ba bc 7e bf 48 bb ac 56 8a 3d 49 39 f9 bd
       -0.022772731 -0.0030631716 0.067548126 -0.121691294
0001d0 f1 03 6a be 7f a2 d9 bb 85 23 ae bc ae 3d 1f bd
       -0.22853066 -0.0066416855 -0.021257171 -0.03887718
0001e0 03 32 02 be 22 d4 e9 3d 55 c0 c6 bd f0 23 08 be
       -0.1271439 0.11417414 -0.09704653 -0.13294959
0001f0 ba cb 84 3b 96 73 0f bd df ef 1a bc d6 30 3d 3d
       0.0040526064 -0.03502234 -0.009456604 0.04618915

conv.weight f4 [128, 1, 1, 1]
000000 33 b5 33 bf c3 2d 02 40 43 44 31 bb ea 56 f5 bf
       -0.70198363 2.034043 -0.0027048744 -1.9167149
000010 9f 6e 6c bf 3f d4 d2 3e ca 45 64 3e 8a e0 1e 3e
       -0.92356294 0.41177556 0.22292247 0.15515342
000020 d7 25 af 3f 44 97 b1 3f e8 a7 ba 3f 37 ca 38 3f
       1.3683423 1.3874288 1.4582491 0.72183555
000030 b0 af b2 3f 4e d3 d6 bf 69 c0 ba 3f 09 3d 61 3f
       1.3959866 -1.6783235 1.4589969 0.8798376
000040 fc 26 6e 3e 6d 2a b9 3e 3e e8 12 c0 59 f9 0f 3e
       0.23257059 0.3616518 -2.295425 0.14059962
000050 29 b4 f8 3e d0 89 8c 3f e5 b1 1c bf 73 57 d4 bf
       0.4857495 1.0979557 -0.61208946 -1.6589187
000060 3c 36 17 40 d5 e7 c9 bf 2f ef 30 3e ea 4a 34 3f
       2.3626852 -1.5773875 0.17278741 0.7042681
000070 55 51 32 bf e7 a9 9f 3e 5d 21 ec bf 9f 64 4f 3f
       -0.6965535 0.31184313 -1.8447682 0.8101291
000080 eb 4e 0c c0 25 5c e9 3f ae 35 6c bf e6 20 b2 3f
       -2.1923168 1.8231245 -0.9226941 1.391629
000090 b7 e0 b5 3e 4d 8b f0 3c 0f 26 9a 3f 25 b5 17 3f
       0.35523006 0.029363299 1.2042865 0.5926078
0000a0 41 59 84 c0 7c 83 f9 3f 91 80 b3 bf 9e 9e ea 3e
       -4.1358953 1.9493251 -1.402361 0.4582414
0000b0 b8 33 0d c0 fb ee 7b c0 03 1a 92 3f d0 0c 8d 3e
       -2.2062817 -3.9364612 1.1414188 0.27548838
0000c0 2a ea 20 3f a2 c1 1b 3f 81 f1 28 3f 89 34 a2 3f
       0.62857306 0.60842335 0.65993506 1.2672282
0000d0 28 9b 68 c0 c6 e2 26 bf 28 3e 91 bd 6b 9a 49 c0
       -3.63447 -0.6518978 -0.070919335 -3.15005
0000e0 b6 10 f5 3e 84 26 01 40 34 5d 31 3e ec f3 9a 3f
       0.47864312 2.0179758 0.1732071 1.2105689
0000f0 9b 9c 73 bf b4 90 3c bf 2c ea 35 3f 47 28 47 3f
       -0.95160836 -0.736583 0.7106044 0.77795833
000100 62 78 8f 3e 48 e6 74 be 70 02 2b 40 20 ff 84 bf
       0.28021532 -0.2391597 2.6720238 -1.0390358
000110 b9 68 0f c0 25 25 15 c0 30 9c 53 c0 a8 93 d9 bf
       -2.2407668 -2.3303921 -3.306408 -1.6998186
000120 7b 27 0d 3f ab 55 c0 bd 37 48 2b bf fe 6f 8f bf
       0.5513837 -0.0939134 -0.66907066 -1.1206052
000130 6f 62 d4 bf e8 cb d0 bf 38 2c 28 3c 76 aa ce bf
       -1.659254 -1.6312227 0.010264449 -1.614577
000140 23 a5 3a c0 7b f7 0b 3f 0f ca 09 c0 cd 84 2e 3e
       -2.9163291 0.546745 -2.1529577 0.17042847
000150 6d ea 84 be 02 76 af 3f d0 2a 71 bf bb c7 12 bf
       -0.25960103 1.3707888 -0.9420595 -0.57336015
000160 29 c9 23 3f 02 a7 c0 be bd 3a f1 bf b0 5d 25 c0
       0.6397882 -0.37627417 -1.884605 -2.5838432
000170 1f dc 0c 3e 45 66 1f 3f 72 89 b5 3f 96 94 5e bf
       0.13755845 0.62265426 1.418257 -0.86945474
000180 18 a6 f0 3f f1 64 e9 3e b9 2c 5c bd 92 4a 18 be
       1.8800688 0.45584825 -0.05375359 -0.14872196
000190 c4 0d c7 bf e6 d5 12 c0 36 1d b3 3f aa 77 c6 bf
       -1.5551076 -2.2943053 1.399329 -1.5505269
0001a0 9c 03 14 c0 fa e4 65 3e 8e 81 46 3f c5 0e ec be
       -2.3127203 0.22450629 0.77541435 -0.46105018
0001b0 48 08 1b c0 a4 64 f1 3f 49 18 20 bf 55 eb c2 3f
       -2.4223804 1.8858838 -0.62537056 1.5228068
0001c0 a2 78 3c 3e f4 9b 18 c0 42 d7 88 bd 2d 65 e9 bd
       0.18405393 -2.3845186 -0.06681682 -0.11396251
0001d0 1d c2 8c 3f ee 61 e6 bf 43 a2 f1 bf 80 40 75 3f
       1.0996739 -1.7998636 -1.8877643 0.95801544
0001e0 5a 32 0d 3f b6 fb b3 bf ef 30 fc 3e b8 49 a4 3f
       0.55154955 -1.4061191 0.49256083 1.2834997
0001f0 4c 86 bb bf 51 a0 3d 40 d1 80 04 c0 1e 76 91 3f
       -1.4650359 2.96291 -2.0703623 1.1364172
