AI/Image-Generation/PGGAN/model/64x64/discriminator_model/fromrgb_layers_2.pt (torch, 2187 bytes, 2 tensors)

bias f4 [128]
00000000: d1f9 b7be f1b8 1c3e 32de 353d 6c82 793e
00000010: 16b3 63bd 1def cfbc f27e bdbe 2e42 84be
00000020: 525a 57be 4c66 453c bc0f 263e 0541 f2bd
00000030: 19ea 9ebe 1fa9 40be a70e 96be 93d9 a1be
00000040: 6cec 923e 0fb2 6fbe b76d 96be 5bf6 873c
00000050: 5048 febc 60f1 ff3d 82ce 40bd c572 9ebe
00000060: 02fc 1e3e 43ad bbbe 795f e3bc e9d3 28be
00000070: 5587 12bd 8455 6c3e d70a c83c f9c0 a7bc
00000080: 0566 6e3e e38a 713e 57f7 8e3c 3707 6abc
00000090: 7b23 f1be ce50 0f3d 3c95 bdbe f463 0d3e
000000a0: 5974 d9be 4263 7cbe 95ae 11bd 3fb4 f73c
000000b0: 0505 4a3e 1fba 06bf 168e 72be 01eb a5be
000000c0: 1ace 90be 153d e8be 42ca 253e 56b5 7c3c
000000d0: c5a3 87be c605 8cbd 64d9 c53c 411d 35bd
000000e0: e576 6a3e f64c 5e3e 0c26 023c 1cb3 003d
000000f0: 33c2 f63c 7585 e23c 6b6c 07bd d1fa 6a3d
00000100: 24c4 a4be 6a6e c6be a0d0 743c c91f 0a3d
00000110: 0261 abbe dc71 7fbe bfd8 27be 4beb c4be
00000120: 705b 30be 720c d13d 6387 70be 5c1d 6fbe
00000130: 7164 123c f769 78be caee 923e 7cf9 a73e
00000140: 2ccc a3bc 59be 15be 7cc6 2bbe a154 783e
00000150: 103c d13d ec0a ed3c e350 afbe d168 a2be
00000160: 1df1 2cbd b5b1 91be 6581 463d f720 2abe
00000170: 7049 9a3c e00d 22bd 66ca dabc 1522 373e
00000180: 02d2 d83c 2b13 c6be 8194 cdbc 441d 343e
00000190: da8b 82be a149 a7bc 6488 273d e8a4 cdbd
000001a0: 3cd2 27bd afea 663c 4eae a53e 9716 c83c
000001b0: 71fe 9e3e 8fe4 ecbd df13 a9be 15ec d23c
000001c0: 5a9f 93bd 8edd d1be 71e9 5fbd 26f2 d33d
000001d0: bc05 a03d 3d4c acbe 34a5 d83d 8f6b f83c
000001e0: 986f d3be 9a71 1abf 7841 343e 774c 7c3e
000001f0: 144c 53bd abd6 1fbd c763 b6be 80c9 c0be
-0.35932782 0.15304925 0.044401355 0.24366158 -0.05559071 -0.025382573 -0.37010914 -0.2583174
-0.21030548 0.012048315 0.1621694 -0.11828808 -0.31037977 -0.18814515 -0.29308054 -0.31611308
0.28696 -0.23407768 -0.2938058 0.016596964 -0.03104034 0.124972105 -0.04707194 -0.30946937
0.15525821 -0.36655626 -0.027755486 -0.16487087 -0.035773594 0.23079497 0.024419231 -0.020477759
0.23281105 0.23588137 0.017451925 -0.014283947 -0.47097382 0.03498917 -0.3702792 0.1380766
-0.4247158 -0.24647239 -0.035566885 0.030237315 0.19728477 -0.5262775 -0.23687014 -0.32405856
-0.28282243 -0.45359102 0.16190436 0.015424093 -0.26492134 -0.06837039 0.024151511 -0.04421735
0.22896917 0.21709046 0.007943641 0.031420812 0.030121898 0.027651528 -0.03306238 0.057368103
-0.32180893 -0.38756114 0.014942318 0.03372172 -0.3347245 -0.24945778 -0.16391276 -0.38460764
-0.1722238 0.10207452 -0.23489146 -0.23351043 0.00893508 -0.24259172 0.28697807 0.3280753
-0.019994818 -0.14623393 -0.16774935 0.24251033 0.10216534 0.028935872 -0.342414 -0.31720594
-0.04222213 -0.28455892 0.048463244 -0.16614138 0.018833846 -0.039564013 -0.02670784 0.17884095
0.026467327 -0.386865 -0.025095226 0.17589289 -0.25497323 -0.020420851 0.040901557 -0.10041219
-0.04097198 0.014094039 0.32359546 0.024424834 0.31053498 -0.115670316 -0.33022973 0.025747338
-0.07208128 -0.40989345 -0.054665986 0.103489205 0.07813594 -0.33651915 0.10578385 0.030324725
-0.41296077 -0.6032959 0.176031 0.24638544 -0.051586226 -0.039023083 -0.35623 -0.37653732

conv.weight f4 [128, 1, 1, 1]
00000000: 0610 593f 7c0c abbf 3b85 4ac0 3be2 febe
00000010: cb0f 4740 278f 973f 509e a63f 4800 483f
00000020: b0ac fe3e 34ef a0bf 04de b0bf 4409 5e3e
00000030: 6fa4 103f 2493 fa3e 066c b93d 7a3c 093f
00000040: de65 2ac0 8045 033f ef11 f83e cbdd eebf
00000050: b25f d1bd 93e0 6abf b4a1 22bf de49 d73e
00000060: 88cc babf a8b3 1f40 2364 693f 188b 3d3f
00000070: e7c6 a03f 2a81 03c0 e6d1 f0bf 5aa5 1b3f
00000080: f5f5 10bf 93e8 09c0 56b3 b5bf 6b61 23bf
00000090: 75d1 853f 1b14 08bf 894f e63f c181 8bbf
000000a0: daeb 643f bd23 8a3e 490f ce3f 7bd1 79bf
000000b0: 17dd eabf 238d 0f3f d628 9d3f 13bc 083f
000000c0: 2f9c f63e de3b 0140 a537 e3be cbc1 e1bf
000000d0: 182a 9c3e 82e9 1fbe d2b1 eabf c8bf b03d
000000e0: 38cc 00c0 6498 fdbf 5b89 91bf 9c4d 1ec0
000000f0: bdb7 13c0 86bb ecbf 255e 863f d0fa 84c0
00000100: 61da 613f a1b0 683f 2ba3 cdbf c7eb 12c0
00000110: e3e0 0f3f 6e38 f83e 892b f2bd 710b 473f
00000120: 2c7e 9c3e be7b 6fbf 8f53 c33f e60a 983e
00000130: f624 2fbf a441 cfbd 0426 0cbf f1dc 29bf
00000140: 3858 533f edb0 34be 8c9d 8d3e d763 08c0
00000150: 8a16 8ebf 8781 10c0 71a6 7f3f 842b df3e
00000160: 9dc3 0b40 03ac 223f 8ade 5cc0 93ea 443f
00000170: d6ea b0bf 7556 0a40 f72d 983f 7e3c d1bf
00000180: a270 01c0 d419 363f ba77 4bbf b384 b7be
00000190: f0c2 683f 2d1d 29bd 50d9 42c0 d9dc c93e
000001a0: 0f94 d73f f59f bdbf 6880 40c0 4470 03c0
000001b0: ab56 3ebf a702 5dbe 997f 063f 537f a7bf
000001c0: 7296 d33e 5805 2b3f e2e4 1540 ef14 73bf
000001d0: c028 1ebd b60b 0140 cbfd 59bf 1e24 1cc0
000001e0: c4c6 713f 34a1 0940 d083 bdbf beee 0ec0
000001f0: 6d68 2c40 57f4 ea3f 14d2 373f 5437 603f
0.84790075 -1.3363185 -3.1643817 -0.49781975 3.110339 1.1840562 1.3017063 0.7812543
0.49741125 -1.2572999 -1.3817754 0.21683222 0.56500906 0.48940384 0.09053807 0.53607905
-2.6624675 0.51277924 0.48451182 -1.8661436 -0.102233306 -0.91748923 -0.6352799 0.42048544
-1.4593668 2.4953403 0.9116842 0.74040365 1.25607 -2.0547585 -1.8814056 0.6079918
-0.566253 -2.1548202 -1.4195354 -0.63820523 1.0454546 -0.5315568 1.7993022 -1.0898973
0.8942238 0.2698039 1.6098415 -0.97585267 -1.8348721 0.5607473 1.2278087 0.5341198
0.48166034 2.019279 -0.4437839 -1.7637266 0.30500865 -0.1561642 -1.8335516 0.08630329
-2.0124645 -1.9812131 -1.1370043 -2.473487 -2.3080895 -1.8494728 1.0497481 -4.1556168
0.88223845 0.90894514 -1.606542 -2.2956407 0.56202525 0.48480552 -0.1182471 0.77751833
0.30565012 -0.9354819 1.5259875 0.29695815 -0.6841577 -0.10119942 -0.5474551 -0.66352755
0.82556486 -0.17645617 0.2765926 -2.1310937 -1.1100628 -2.2579057 0.99863344 0.43587887
2.1838143 0.6354372 -3.4510827 0.7692043 -1.3821666 2.161527 1.1889027 -1.6346586
-2.0224996 0.7113316 -0.79479563 -0.3584343 0.9092245 -0.04128759 -3.0445137 0.39426306
1.6842059 -1.481444 -3.0078373 -2.0537271 -0.74350995 -0.21583043 0.5253845 -1.3085731
0.41325718 0.6680503 2.342095 -0.9495382 -0.03861308 2.0163398 -0.8515288 -2.4397044
0.9444392 2.150464 -1.4805851 -2.2333217 2.6938736 1.8355817 0.7180493 0.87584424
