AI/Image-Generation/PGGAN/model/64x64/discriminator_model/fromrgb_layers_0.pt (torch, 1675 bytes, 2 tensors)

bias f4 [64]
0	0x3dc12454	0.09430757
1	0x3dc4b7f0	0.09605396
2	0xbdbf5d1d	-0.09343932
3	0xbccd846d	-0.02508756
4	0xbce37574	-0.027765967
5	0x3ccf6a65	0.025319288
6	0x3c3ca2a1	0.011513383
7	0xbdbb39db	-0.091418944
8	0x3d028581	0.0318656
9	0xbdb8d2b4	-0.090245634
10	0x3dc528bf	0.09626912
11	0xbcf314c7	-0.029672993
12	0xbcf2b41b	-0.029626897
13	0xbcf1bdf2	-0.029509518
14	0x3ce615d9	0.02808659
15	0xbcee6aea	-0.029103715
16	0xbcaaba70	-0.020840853
17	0xbdb775f7	-0.08958047
18	0xbcf41b74	-0.029798247
19	0xbdbd8557	-0.09253948
20	0xbcf1c1b2	-0.029511306
21	0x3dc05492	0.093911305
22	0xbcf146ec	-0.029452763
23	0x3cf0eb67	0.029409124
24	0xbdb89240	-0.0901227
25	0xbcc07611	-0.023493798
26	0xbdb848ab	-0.08998235
27	0x3cdabaa5	0.026700327
28	0xbc4f62fa	-0.012657875
29	0xbcde37f0	-0.027126282
30	0xbcf1f8bb	-0.02953755
31	0xbcf1f7b4	-0.02953706
32	0xbcede83b	-0.0290414
33	0xbdc01b89	-0.09380252
34	0xbdc3a517	-0.09552973
35	0x3ce0dc4a	0.027448792
36	0x3db9ab66	0.09065895
37	0xbda8e868	-0.08247453
38	0x3d87f727	0.066389374
39	0x3c3fe424	0.011712108
40	0xbcf09047	-0.029365672
41	0x3ce24f3f	0.027625678
42	0xbc00f963	-0.007871958
43	0x3cdd0c01	0.026983263
44	0xbcefe035	-0.029281715
45	0xbcb92dc6	-0.022604834
46	0xbdb9cfff	-0.09072875
47	0x3d910605	0.07081226
48	0xbdbd318c	-0.09237966
49	0xbcf19379	-0.029489266
50	0xbdb9607f	-0.09051608
51	0x3db89156	0.09012096
52	0xbcf0c879	-0.029392468
53	0x3dbcdd4f	0.09221899
54	0x3ca14a7c	0.019688837
55	0x3dbae64f	0.09125959
56	0x3d23ddf6	0.0400066
57	0x3dc44cd5	0.09584967
58	0xbcf28a69	-0.029607015
59	0xbcbf8974	-0.023380972
60	0xbcf179e7	-0.029477073
61	0xbce62515	-0.028093854
62	0x3dc56122	0.09637667
63	0x3cf29f28	0.029616907

conv.weight f4 [64, 1, 1, 1]
0	0xbfab8ee3	-1.340298
1	0xbdc1a22a	-0.094547585
2	0x3e9ec7b8	0.31011748
3	0xbfa8cf69	-1.3188297
4	0x40245b94	2.5680895
5	0x3f97caa7	1.185872
6	0xbee62e0c	-0.44957006
7	0xbf341bac	-0.70354724
8	0xbf3b9041	-0.7326699
9	0x3f8c9e1b	1.098575
10	0x3ef9d9d3	0.48799
11	0x3f11ad42	0.56904995
12	0x3e89d228	0.2691815
13	0x3d832dcd	0.0640522
14	0x3fcd6cb6	1.6048801
15	0x3f054012	0.5205089
16	0xbf85ce9a	-1.0453675
17	0x3f400646	0.7500957
18	0x3f5975e3	0.84945506
19	0xbfa04617	-1.252139
20	0x3faba5e0	1.3409996
21	0xbec1c497	-0.378453
22	0x3e444079	0.1916522
23	0x3f944c58	1.1585798
24	0x3f28233a	0.6567875
25	0x3f972ef8	1.1811209
26	0x3fbe6129	1.4873401
27	0xbf3dc7dc	-0.74133086
28	0x3bb383de	0.0054783663
29	0xbf8eaace	-1.1145875
30	0x3f16919d	0.5881594
31	0x3e097e32	0.13427046
32	0x3ef6b123	0.4818202
33	0xbf11449d	-0.5674532
34	0x3de85062	0.11343457
35	0xbdcc50c3	-0.099763416
36	0x3f78854e	0.97078407
37	0x3e155ff7	0.14587389
38	0xb928c952	-0.00016096726
39	0xc004fcfa	-2.0779405
40	0x3fbcd7bd	1.4753338
41	0x3f7b7f54	0.9824116
42	0xc00b8c46	-2.1804366
43	0x3f14d6eb	0.5814044
44	0x3fd34f35	1.6508547
45	0xbe6183bf	-0.22022913
46	0xbfc53f4b	-1.540994
47	0xbf47974c	-0.77965236
48	0x3e1c4a9a	0.15262833
49	0x3f94255d	1.1573902
50	0xbf8397d0	-1.0280704
51	0x3f1ce111	0.61280924
52	0x40291c07	2.6423357
53	0x3e8f7bee	0.28024238
54	0xbfad7b57	-1.3553265
55	0x3ea099a0	0.31367207
56	0xc01e044c	-2.4690123
57	0xbe958631	-0.29203942
58	0x3ece2d7c	0.40269077
59	0xbdd80d9b	-0.1054947
60	0x3f686a83	0.90787524
61	0xbc05e82c	-0.00817303
62	0xc00787a7	-2.1176546
63	0x400492d9	2.0714629
