AI/Image-Generation/PGGAN/model/64x64/discriminator_model/prog_blocks_0.pt (torch, 444995 bytes, 4 tensors)

conv1.bias f4 [64]
0	0xbdc28536	-0.09498064
1	0xbdbbed51	-0.09176124
2	0xbcd82b26	-0.026387762
3	0xbceda464	-0.029009052
4	0xbcebdb94	-0.028791226
5	0x3d10ffc1	0.035400156
6	0x3beb8b7f	0.00718826
7	0x3db9d23a	0.09073301
8	0x3dbb3c1e	0.09142326
9	0xbce3775c	-0.027766876
10	0xbdb77935	-0.08958665
11	0xbcec2ea3	-0.028830832
12	0x3dbb7da4	0.091548234
13	0xbdbc77db	-0.09202548
14	0x3dc22870	0.09480369
15	0xbdc10f29	-0.0942672
16	0xbdb7582f	-0.089523666
17	0x3cf0291c	0.029316477
18	0x3dc3f3d7	0.09567993
19	0xbcc9d3b4	-0.02463708
20	0x3c9ebc5f	0.019376932
21	0x3cd21267	0.02564354
22	0x3dbc59a8	0.09196788
23	0x3dbf2c56	0.09334628
24	0xbdbf25e1	-0.09333397
25	0xbdc31f88	-0.095274985
26	0xbd4520f4	-0.04812713
27	0x3dbc75a5	0.092021264
28	0xbdc2c86f	-0.09510886
29	0xbcf29f2c	-0.029616915
30	0xbce993ab	-0.028512796
31	0xbcefb8a5	-0.02926285
32	0x3d2f878f	0.042853888
33	0x3ce7d2b1	0.028298708
34	0xbce5d261	-0.028054418
35	0x3ce2fa6c	0.027707301
36	0x3dbaa9aa	0.09114392
37	0x3cef6afc	0.029225819
38	0xbcf2b052	-0.029625092
39	0xbca8a19b	-0.020584872
40	0x3c840ec7	0.016120328
41	0x3cadd5f7	0.02122019
42	0x3c8b7d60	0.017027557
43	0x3ce907dd	0.028446132
44	0x3cce7f87	0.025207294
45	0xbc826f13	-0.015922105
46	0x3dbaf99c	0.091296405
47	0x3cd4ccf4	0.025976636
48	0xbcf21f14	-0.029555835
49	0xbdba4de2	-0.09096886
50	0x3ced0450	0.02893272
51	0x3d1cdffc	0.038299546
52	0xbcec13b7	-0.028817995
53	0xbce32b2c	-0.027730547
54	0xbdc35806	-0.095382735
55	0xbce1c289	-0.027558582
56	0x3ce0e8ed	0.027454818
57	0xbdbc7e51	-0.092037804
58	0xbcf285fa	-0.0296049
59	0x3dbafb66	0.09129982
60	0x3dba82d0	0.09106982
61	0xbcb0bc7a	-0.021574248
62	0x3cf165ea	0.029467542
63	0xbdc11e26	-0.094295785

conv1.conv.weight f4 [64, 64, 3, 3]
0	0x3fa96c57	1.3236188
1	0x3e9f186d	0.31073323
2	0x3fca035e	1.5782278
3	0xbf047e19	-0.5175491
4	0xbf03455d	-0.51277715
5	0xbf34991a	-0.70546114
6	0xc0182207	-2.3770769
7	0xbe5f6399	-0.21815337
8	0xbf0526b3	-0.52012175
9	0xbfba56df	-1.4557761
10	0xbf0a4f9b	-0.5402772
11	0xbed9f14a	-0.425669
12	0x3d3a710b	0.045517962
13	0x3faa9b16	1.3328578
14	0x3e5d5b3c	0.21616834
15	0x3e2236f0	0.1584127
16	0x3e979b81	0.29610828
17	0x3f90e2ab	1.1319174
18	0x3fa7af4e	1.3100374
19	0x3e688ee1	0.22710754
20	0xbe0b89a6	-0.13626727
21	0x3fa37090	1.2768726
22	0xbf84a2d9	-1.0362197
23	0xbf3cdf45	-0.7377818
24	0xbec85c31	-0.39132836
25	0xbfa5df0a	-1.2958691
26	0x3d6dbbcf	0.058040436
27	0xbf31402b	-0.6923854
28	0x3fab10d4	1.336451
29	0xbfc88c58	-1.566783
30	0xbf1e3b12	-0.61808884
31	0xbf83e7be	-1.0305097
32	0xbf3679e1	-0.7127972
33	0xbf92db33	-1.1473144
34	0xbf7310a4	-0.94947267
35	0xbf2681ed	-0.65042
36	0x3fa5bacc	1.2947631
37	0xbf086a32	-0.5328704
38	0x3da0458f	0.07825767
39	0x3fcd4227	1.6035813
40	0xbf86c21e	-1.052799
41	0x3e3ea51f	0.18617676
42	0x3e1002e8	0.14063609
43	0x3fc5ae72	1.5443861
44	0xbf0be20c	-0.54641795
45	0x3fb1b152	1.3882239
46	0x3de04e32	0.109524146
47	0xbff16336	-1.8858402
48	0x3dbfae53	0.093594216
49	0x3fd6a9b1	1.6770536
50	0xbfbd6933	-1.4797729
51	0x3fdfd09a	1.7485535
52	0xbf427ae9	-0.75968796
53	0x3eb3dabb	0.35127816
54	0x3e803f33	0.25048217
55	0x3ec7a92e	0.3899626
56	0x3f18cc7f	0.59687036
57	0x3f49974e	0.787465
58	0xbfe47e51	-1.7851049
59	0x3e765856	0.24057135
60	0xbfd3124a	-1.6489956
61	0xbee057c8	-0.43816972
62	0x40031bcd	2.0485718
63	0x3f97ffa1	1.1874887
64	0x3f44582c	0.7669704
65	0x3f255b6d	0.6459263
66	0xbec11a67	-0.37715456
67	0x3f2a65f7	0.66561836
68	0x3e3b8e29	0.18315949
69	0x3fc04e0d	1.5023819
70	0x3f6fb48e	0.9363488
71	0xbf3ec2ec	-0.7451618
72	0x40016884	2.0220041
73	0xbe48e1f8	-0.1961745
74	0xbef3d5b3	-0.47623977
75	0x3e52144d	0.20515557
76	0xbf335cf2	-0.700637
77	0x3e598a6a	0.21244207
78	0xbf9fef88	-1.2494974
79	0x3faff484	1.3746495
80	0x3d59a1d8	0.05313286
81	0xbf8d41b5	-1.1035677
82	0x3f8f99a9	1.1218768
83	0x3face6b5	1.3507906
84	0x3f522fa2	0.8210393
85	0x3fa81e31	1.3134214
86	0x3f682280	0.9067764
87	0x3f8b747b	1.0894922
88	0xbf647b6b	-0.8925082
89	0xbf380646	-0.7188457
90	0x3d3d4b2c	0.046214268
91	0x3e956145	0.29175773
92	0xbe609644	-0.21932322
93	0x3f46d202	0.77664196
94	0xbf443513	-0.76643485
95	0x3f3c87ba	0.736446
96	0xbedae029	-0.42749146
97	0x3e1fbf08	0.15600216
98	0x3f9c1155	1.2192789
99	0x3f7e90c1	0.99439627
100	0xbe7fc705	-0.24978264
101	0x3c07b3f8	0.008282654
102	0xbf4965a3	-0.7867071
103	0xbfbdcacf	-1.4827517
104	0x3fae62af	1.3623866
105	0x3f6903a1	0.9102116
106	0x3f159790	0.5843439
107	0x3ebe4870	0.3716464
108	0xbee036ea	-0.43791896
109	0x3f0230b3	0.5085556
110	0xbe9b59f6	-0.30342072
111	0xbead5d43	-0.33860216
112	0x3f2be9bf	0.67153543
113	0x3fbaf15d	1.4604908
114	0x3e0813c0	0.13288784
115	0x3eeb0eb4	0.45909655
116	0xbed583f7	-0.41702244
117	0xbfd16844	-1.6359944
118	0xbf1c1e3c	-0.60983634
119	0x3e83f8a2	0.2577563
120	0xbcf843d3	-0.030305779
121	0x3fe29d2e	1.7704217
122	0xbc47f61b	-0.012204672
123	0xbf337cde	-0.7011241
124	0x3fbf5bbd	1.4949871
125	0x3fbd58d2	1.4792731
126	0xbe39160c	-0.18074816
127	0xbde3db09	-0.11125762
128	0x3fec223d	1.8447949
129	0xbf6b9c6d	-0.9203556
130	0xbd4bce0a	-0.04975704
131	0xbe0005e8	-0.12502253
132	0x3fa9b661	1.3258783
133	0x3f6cfc02	0.92572033
134	0x3f32a3d6	0.69781244
135	0xbf6b3795	-0.91881686
136	0x3dc9f1ba	0.09860559
137	0xbf914376	-1.1348712
138	0xbf8f9133	-1.1216186
139	0x3e40dce0	0.18834257
140	0xbea0f31a	-0.31435472
141	0xbea4c947	-0.32184812
142	0x3e487e3a	0.19579402
143	0x3ec57fe6	0.3857414
144	0x3efa7f82	0.48925406
145	0x3e421f5d	0.18957277
146	0xbfc444e7	-1.5333527
147	0xbeaee8e4	-0.34162056
148	0x3f703ebc	0.93845725
149	0xbf418cf4	-0.756057
150	0xbd055ea1	-0.03256095
151	0x3c367206	0.011135584
152	0xbf8eda60	-1.1160393
153	0xbf4e1680	-0.8050308
154	0xbf71a22e	-0.9438809
155	0xbef23435	-0.47305456
156	0x3f4d30e1	0.8015271
157	0x3fb569bc	1.4172893
158	0x3e54d027	0.20782529
159	0xbf369d17	-0.7133345
160	0x3f418609	0.75595146
161	0x3f5fb4b4	0.87385106
162	0x3f530203	0.82424945
163	0x3fd5a4da	1.6690934
164	0x3e62df26	0.22155437
165	0x3f0c560f	0.54818815
166	0xbfc21662	-1.5163081
167	0xbddc4b9d	-0.107566096
168	0x3f57d4bc	0.8430898
169	0xbf5c8d7b	-0.8615338
170	0xbf84f4c7	-1.03872
171	0xbf3af7be	-0.73034275
172	0x3e7303db	0.2373194
173	0xbf9f7292	-1.2456839
174	0x3f9485b2	1.16033
175	0x3f93a5e6	1.1535003
176	0xbd668dd0	-0.056287587
177	0xbef02741	-0.46904948
178	0xbd59162a	-0.052999653
179	0x3ed9e926	0.4256069
180	0xbedd626d	-0.43239155
181	0xbf7d26d5	-0.9888738
182	0x3ee21f91	0.44164708
183	0x3f406948	0.75160646
184	0xbe0222f1	-0.12708642
185	0x3eab1483	0.33414087
186	0x3fe9a5e8	1.8253756
187	0xbe0ee491	-0.13954379
188	0xbf8bbc07	-1.0916756
189	0x3fafbc5d	1.3729359
190	0xbd5b2949	-0.05350617
191	0xbeb55ad3	-0.35420856
192	0x3f95f450	1.1715183
193	0xbfa443f8	-1.2833242
194	0x3f246ffc	0.64233375
195	0xbf056670	-0.5210943
196	0x3e84fdbd	0.25974837
197	0x3ecad112	0.39612633
198	0xbf99a49a	-1.2003357
199	0xbf1916e7	-0.5980057
200	0xbf12e4e3	-0.57380503
201	0xbec3cfa6	-0.3824436
202	0xbe12b40c	-0.14326495
203	0x3ec25871	0.379581
204	0xbf48b0b8	-0.7839465
205	0x3f05259c	0.5201051
206	0x400d6215	2.2091115
207	0xbdf0c7d4	-0.11756864
208	0xbf67a608	-0.9048772
209	0xbf83a979	-1.0286094
210	0xbfdf7958	-1.7458906
211	0x3fdd5a86	1.729325
212	0x3c536597	0.012902639
213	0x3dc3762e	0.09544025
214	0x3e96fabb	0.29488167
215	0xbeb33775	-0.35003248
216	0x3ebbfcbc	0.3671626
217	0xbf50cf21	-0.81566054
218	0x3f17a406	0.59234655
219	0x3f3f7449	0.7478681
220	0xbf5abc89	-0.8544393
221	0xbc8cd643	-0.017192012
222	0xc0029966	-2.0406127
223	0x3ed8b82b	0.4232801
224	0x3fbd9740	1.4811783
225	0xbfc324e2	-1.5245631
226	0x3f715ada	0.94279253
227	0xbebe4b5e	-0.37166876
228	0x3d56b503	0.05241872
229	0xbf18c0b0	-0.5966902
230	0xbf6f240b	-0.9341437
231	0xbd44a583	-0.048009407
232	0x3ed48402	0.41506964
233	0x3ffc9f89	1.9736186
234	0xbd9c1438	-0.07621044
235	0xc0261e1e	-2.5955882
236	0x3f8fb530	1.1227169
237	0xbe763229	-0.24042572
238	0xbf801bd8	-1.0008497
239	0xbefb12d3	-0.490378
240	0xbf89b53b	-1.0758432
241	0x3f1f41ed	0.6220997
242	0xbdd33b79	-0.10314078
243	0x3d3e5743	0.046469938
244	0x3f2bcbcc	0.67107844
245	0xbdf4c86b	-0.11952289
246	0x3eced160	0.40394115
247	0xbf61bb3b	-0.88176316
248	0xbf3ca695	-0.73691684
249	0xbee41eda	-0.44554788
250	0x3f6301fe	0.88674915
251	0xbf434672	-0.76279366
252	0xbf36d9bb	-0.7142598
253	0x3dcdc31c	0.1004698
254	0xbe27d3ee	-0.16389439
255	0x3f67cdb5	0.9054826

conv2.bias f4 [128]
0	0xbcf25c9e	-0.029585179
1	0x3dbf0b25	0.093282975
2	0x3dc09ed6	0.094052956
3	0xbcf1e140	-0.029526353
4	0xbced3bb1	-0.028959127
5	0x3ccd33f3	0.025049185
6	0x3db7e988	0.089800894
7	0x3dbed23a	0.09317441
8	0xbcd0f8ac	-0.025509201
9	0x3be087f6	0.0068521453
10	0x3d5b1c8b	0.053494018
11	0xbc6995ab	-0.014256875
12	0xbc7c223b	-0.015389021
13	0xbcd653de	-0.026163038
14	0xbdba106d	-0.09085164
15	0x3c8f15a2	0.01746637
16	0x3dc24fd8	0.09487885
17	0x3ced8b92	0.028997216
18	0xbc4efb49	-0.012633153
19	0x3ce6e9a9	0.02818759
20	0xbdb7e886	-0.08979897
21	0x3db91d07	0.0903874
22	0xbcf1a914	-0.029499568
23	0xbce5a703	-0.028033739
24	0xbdc3a75c	-0.09553406
25	0xbdb8796d	-0.09007535
26	0x3db91670	0.09037483
27	0xbdc5b1ea	-0.09653075
28	0xbdbee92d	-0.093218185
29	0xbcef731a	-0.02922969
30	0xbcf202b7	-0.02954231
31	0x3db7577c	0.08952233
32	0xbce8da2f	-0.02842435
33	0x3cc73978	0.024319395
34	0xbcc34e5a	-0.023841072
35	0xbccf09b4	-0.025273181
36	0xbcecc1d7	-0.028901024
37	0xbced245d	-0.028948003
38	0x3b07f0dc	0.0020742929
39	0xbcddafab	-0.027061304
40	0xbcd20e87	-0.025641693
41	0x3cf153d9	0.029458927
42	0xbcee7849	-0.02911009
43	0xbdbc47a6	-0.09193353
44	0xbcf2a2c8	-0.029618636
45	0xbcf3a250	-0.029740483
46	0x3db80a19	0.08986301
47	0xbdc56c39	-0.096397825
48	0x3b846c03	0.0040411963
49	0xbcbb060c	-0.022830032
50	0x3dbab288	0.091160834
51	0xbcd073d4	-0.025445856
52	0xbce0d89d	-0.02744704
53	0xbcef087d	-0.029178852
54	0x3dc5a99e	0.096514925
55	0xbcd6d5b6	-0.026224952
56	0xbcf497a2	-0.02985746
57	0x3db773ea	0.08957656
58	0x3db8e2c4	0.09027627
59	0xbcf00f36	-0.029304128
60	0xbdb7577a	-0.08952232
61	0xbdba60a1	-0.09100462
62	0xbcdb3f63	-0.026763624
63	0x3db869e1	0.0900457
64	0x3dc11998	0.0942871
65	0xbdb8ccae	-0.090234146
66	0xbdbabdfc	-0.09118268
67	0xbcdfd181	-0.027321579
68	0xbcf1c14e	-0.02951112
69	0xbce88ce8	-0.028387502
70	0xbcad29a6	-0.021138024
71	0xbdb85c83	-0.0900202
72	0xbdb8218f	-0.08990776
73	0x3dbed2a0	0.09317517
74	0xbdb8ee98	-0.09029883
75	0xbb867988	-0.004103843
76	0xbcee23f3	-0.029069876
77	0xbcda8232	-0.02667341
78	0x3dbd26e0	0.092359304
79	0xbcefa068	-0.029251292
80	0xbcef5422	-0.029214922
81	0x3d704008	0.058654815
82	0xbcb0ec14	-0.021596946
83	0x3dc54cc8	0.096337855
84	0xbd9e6812	-0.077346936
85	0x3dc24ffe	0.094879135
86	0xbcf1e315	-0.029527226
87	0xbdb93215	-0.090427555
88	0x3dc4631b	0.09589215
89	0x3ccbc776	0.024875384
90	0xbcefe919	-0.029285954
91	0xbcbcfae0	-0.023068845
92	0x3cd965bc	0.026537769
93	0x3cd282a8	0.025697067
94	0xbb19518f	-0.002339456
95	0xbc34b022	-0.011028321
96	0xbdbed6d1	-0.09318317
97	0x3cc48d1b	0.023993066
98	0xbce7c191	-0.028290542
99	0xbce736fb	-0.028224459
100	0xbdc01023	-0.09378078
101	0xbc42cdeb	-0.011889915
102	0x3db7a975	0.08967868
103	0xbcf2778f	-0.029598026
104	0xbcafd37c	-0.021463148
105	0x3ce644d2	0.028108988
106	0xbc8af734	-0.016963579
107	0x3db733b5	0.08945409
108	0xbc6cc67e	-0.014451621
109	0xbce51de7	-0.02796836
110	0xbdc244dd	-0.09485791
111	0xbdb8745f	-0.09006571
112	0xbdc19e9a	-0.09454079
113	0xbcd002ea	-0.025392015
114	0x3cbd4194	0.02310256
115	0xbdbd850d	-0.09253893
116	0x3cca2344	0.02467502
117	0xbcdf6015	-0.027267495
118	0xbcc12e4c	-0.023581646
119	0x3cf17a73	0.029477334
120	0xbdbb7279	-0.09152693
121	0xbdb765b3	-0.089549445
122	0xbcb7ab94	-0.022420682
123	0x3d9bb9bc	0.076037854
124	0xbce60d00	-0.02808237
125	0x3dc0c28e	0.09412108
126	0xbceb37ac	-0.02871307
127	0x3db8ab05	0.090169944

conv2.conv.weight f4 [128, 64, 3, 3]
0	0xbe5b9d2e	-0.21446678
1	0xbf9c210b	-1.2197584
2	0xbeeca7f5	-0.4622189
3	0x3f3f1d3d	0.7465399
4	0xbd538aff	-0.05164623
5	0xbeb35519	-0.35025862
6	0x3f76f2e9	0.964644
7	0x3e17244e	0.14759943
8	0x3fc97e09	1.5741588
9	0xbeeb6afa	-0.45980054
10	0x3fd3a79c	1.6535525
11	0x3f827ec6	1.0194938
12	0xbf86d497	-1.0533627
13	0x3e24fe83	0.16112714
14	0x3f9b1aad	1.2117516
15	0x3e95973d	0.29216948
16	0xbdba09b8	-0.09083885
17	0x3e0c7613	0.13716917
18	0x3f1e92bc	0.6194265
19	0xbf675398	-0.9036193
20	0xbe4fe0a6	-0.2030054
21	0xbecc55b0	-0.39909124
22	0xbe96f02a	-0.29480106
23	0x3db1e62e	0.086864814
24	0xbed86194	-0.42261946
25	0xbf0d0e87	-0.5510029
26	0xbe13122f	-0.14362405
27	0x3ece014a	0.40235358
28	0xbe9399d9	-0.28828314
29	0x3f7e214b	0.9926955
30	0xbe6a6e38	-0.22893608
31	0x3e856ef0	0.260612
32	0x3f1878ed	0.5955952
33	0xbd71ed23	-0.05906404
34	0x3f3d9eb6	0.740703
35	0xbe97a086	-0.29614657
36	0xbcfe0e1b	-0.031012585
37	0x3e6bb16d	0.23016901
38	0x3efe48c6	0.49664897
39	0x3f3d7ad6	0.7401556
40	0x3d4ac291	0.04950196
41	0x3de74bee	0.11293779
42	0xbf09fa50	-0.5389757
43	0x3f79ab91	0.97527415
44	0x3f441c11	0.76605326
45	0x3f91929b	1.1372865
46	0x3e4c8ad8	0.1997484
47	0x3ddbbf4a	0.10729845
48	0xbf2c3aa1	-0.6727696
49	0xbfe20ae9	-1.765958
50	0x3fe3e776	1.7805011
51	0x3ec9c9de	0.39411825
52	0x3fb9128b	1.4458784
53	0xbf1fd5ff	-0.6243591
54	0xbee9de4a	-0.45677406
55	0xbf8239db	-1.0173906
56	0x3fe2c16b	1.7715276
57	0xbfabd8bb	-1.3425516
58	0x3e646063	0.22302394
59	0xbfd410fc	-1.6567683
60	0x3bd78129	0.0065766764
61	0x3f185be9	0.59515244
62	0x40133ed4	2.3007097
63	0xbdcd39ae	-0.10020767
64	0xbfbd0592	-1.4767325
65	0xbf9b39be	-1.2126997
66	0x3f67e631	0.9058562
67	0xbe1acb8f	-0.15116714
68	0x3e81e17c	0.25367343
69	0x3f036784	0.5132983
70	0x3f11757e	0.56819904
71	0x3fffe8cd	1.999292
72	0x3f55d8bc	0.83533835
73	0xbd28eb4e	-0.04124003
74	0xbefaef4a	-0.49010688
75	0xbf7e9df0	-0.99459743
76	0xbf0d0a59	-0.55093914
77	0xbf6f1b1e	-0.9340075
78	0x3e1146fc	0.14187235
79	0xbf86ae12	-1.0521872
80	0x3dfcdf39	0.12347264
81	0x3f8c539c	1.0963016
82	0x4016910d	2.3526032
83	0x3e134183	0.1438046
84	0x3fc92c3f	1.5716628
85	0xbea4ad08	-0.32163262
86	0xbffff4d2	-1.9996588
87	0xc028e824	-2.6391687
88	0xbf87349b	-1.0562929
89	0x3eb08bf1	0.34481767
90	0x3fd78fdb	1.6840776
91	0xbfb02c60	-1.3763542
92	0xbee9867c	-0.45610416
93	0x3fe15ae6	1.7605865
94	0xbec5ce0c	-0.38633764
95	0x3d287baf	0.04113358
96	0xbfa54e1e	-1.2914464
97	0xbe28c6df	-0.16482113
98	0x3e20010c	0.156254
99	0xbe87e24d	-0.2653984
100	0xbf2345a7	-0.63778156
101	0x3fbb9e5c	1.4657702
102	0xbf4c4571	-0.7979346
103	0x3f40ad90	0.75264835
104	0xbf8357af	-1.0261134
105	0xbd65debe	-0.056120627
106	0xbf5069bc	-0.8141134
107	0xbefda15a	-0.49537164
108	0x3f95a3e1	1.1690637
109	0xbe33f518	-0.17573965
110	0x3ff0f905	1.8825995
111	0x3f807f40	1.0038834
112	0xbf840eb6	-1.031699
113	0xbf0ec6d7	-0.55772156
114	0x3f702d65	0.93819267
115	0x3fb84bd9	1.4398147
116	0x3ec080a1	0.37598136
117	0xbf33d57d	-0.7024763
118	0x3f22ace6	0.6354507
119	0x3f0d28fb	0.55140656
120	0xc0146464	-2.3186274
121	0x3f80169d	1.0006901
122	0x3f682bb4	0.90691686
123	0x3fbb0976	1.4612262
124	0x3f3ea86e	0.74475753
125	0xbee58aef	-0.4483256
126	0xbe1ac263	-0.15113215
127	0x3f339a30	0.70157146
128	0xbfb6ac2a	-1.427129
129	0xbf9a4d69	-1.2054874
130	0xbf779b1b	-0.9672105
131	0x3e7d8fce	0.24761888
132	0x3ff9d5dc	1.951839
133	0x3fad612c	1.354528
134	0xbdf5dc69	-0.120049305
135	0x3e94d2f8	0.29067206
136	0x3e866d1d	0.26255122
137	0x3ff98c87	1.949601
138	0xbeb168f1	-0.34650376
139	0xbf242b50	-0.6412859
140	0x3f55a37d	0.8345259
141	0xbefed6f3	-0.49773368
142	0x3edbf191	0.42957738
143	0xbec516bd	-0.3849391
144	0xbf124b40	-0.5714607
145	0xbfa90801	-1.3205568
146	0x3e0ec252	0.13941315
147	0xbc23f2b1	-0.010006593
148	0xbf1d09a8	-0.6134286
149	0x3f812738	1.0090094
150	0xbf76bd53	-0.96382636
151	0x3fd6ac2b	1.6771291
152	0x3ec5dcce	0.38645023
153	0xbfcf1f79	-1.618148
154	0xbee27c26	-0.44235343
155	0x3fb54f2e	1.4164789
156	0xbe9da472	-0.30789524
157	0x3f4d1204	0.80105615
158	0xbf144882	-0.5792314
159	0xbedd8fd2	-0.4327379
160	0x3f04c283	0.518593
161	0x3f4a2390	0.78960514
162	0xbddbfa39	-0.107410856
163	0xbfb8211b	-1.4385103
164	0xbe3a0138	-0.18164527
165	0x3e57c183	0.21069913
166	0x3f298d38	0.6623111
167	0xbe682459	-0.22670116
168	0x3e954730	0.29155874
169	0x3dc01ab9	0.09380097
170	0x3f4fe599	0.81209713
171	0x3f26cf39	0.65159947
172	0xbf49ed65	-0.7887786
173	0xbeaf3b55	-0.34224954
174	0x3d1f5e0e	0.038908057
175	0x3f611759	0.8792625
176	0xbfba7ede	-1.4569967
177	0x3f6b7150	0.91969776
178	0xbf4a21ea	-0.78958
179	0x3f15eca6	0.5856422
180	0x3f39567c	0.7239759
181	0xbf9bc74a	-1.2170193
182	0xbe94c90b	-0.29059634
183	0x3f95f64c	1.1715789
184	0xbfc5561f	-1.5416907
185	0xbf0712f5	-0.527633
186	0x40040422	2.0627522
187	0xbfcf6749	-1.6203395
188	0xbfae8e1c	-1.3637118
189	0xbdce39cd	-0.100696184
190	0x3e00160d	0.12508412
191	0x403a6af6	2.9127784
192	0xbef82fa7	-0.48473856
193	0xbff142ca	-1.8848507
194	0x3f87fefe	1.0624692
195	0x4049d910	3.1538734
196	0xbd3690af	-0.044571575
197	0x3e54f462	0.2079635
198	0xbf8a7813	-1.0817894
199	0x3e606141	0.219121
200	0x3e3718b9	0.17880525
201	0x3fdc41d7	1.7207593
202	0x3fc48cb2	1.5355437
203	0x3f1fabf1	0.62371737
204	0x3d3b7ac2	0.045771368
205	0xbe6662aa	-0.22498575
206	0xbf2194c0	-0.631176
207	0x3f7f8df3	0.9982597
208	0xbf2dfcaf	-0.6796369
209	0xbf20f6ec	-0.6287677
210	0xbfbd8735	-1.4806887
211	0x3f455fa2	0.7709905
212	0xbf32815c	-0.69728637
213	0xbf18c686	-0.5967792
214	0xbd5aa91e	-0.05338394
215	0x3e94c099	0.2905319
216	0x3f3fa42e	0.74859893
217	0x3eb0cc4a	0.3453086
218	0x3f437849	0.76355416
219	0x3f64b6e6	0.8934158
220	0x3f51f770	0.82018185
221	0x3fc6b464	1.5523801
222	0x3ec0d583	0.37662897
223	0xbe04a022	-0.12951711
224	0x4024247c	2.5647268
225	0xbeb97174	-0.3621937
226	0x3ec7fe2a	0.390611
227	0x3eb4f136	0.3534028
228	0x3f2c381a	0.67273104
229	0xbdfe0c90	-0.1240474
230	0xbf83825b	-1.0274156
231	0x3f37dc4f	0.7182054
232	0x3fc21c7e	1.5164945
233	0xbdcb50a8	-0.09927493
234	0x3e24185f	0.16024922
235	0xbf3675f0	-0.7127371
236	0x3efa06fa	0.48833448
237	0x3eb3c0eb	0.35108122
238	0x3fa2804e	1.2695405
239	0x3fa91692	1.3210013
240	0xbfd4e9ae	-1.6633813
241	0xbf6ced50	-0.9254961
242	0xbe72735f	-0.23676823
243	0xbe25f03f	-0.16204928
244	0xbf86caaf	-1.0530604
245	0x3f50895c	0.81459594
246	0x3daba32e	0.083807334
247	0x3f2e0970	0.6798315
248	0x3e8a4e80	0.27013016
249	0xbf71fa3a	-0.9452244
250	0x3eef60ab	0.4675344
251	0xbf596d3e	-0.84932315
252	0x3edcc77a	0.4312094
253	0xbfe89c35	-1.8172671
254	0x3fddbe2a	1.7323658
255	0xbeaa7a90	-0.33296633
