AI/Image-Generation/PGGAN/model/8x8/generator_model/torgb_layers_1.pt (torch, 1667 bytes, 1 tensors)

conv.weight f4 [1, 128, 1, 1]
000000 57 ea 06 3d db 8b 34 40 7e bd 8d be 33 a4 9f bf
       0.032938328 2.821036 -0.27683634 -1.2471985
000010 87 26 a0 3f b5 fc 15 3f 38 8c 9f bf e8 b4 94 3c
       1.2511758 0.58588725 -1.2464666 0.01815267
000020 c3 c5 56 3f 0a e4 da bf fc fb 9f bf 89 e3 cf bd
       0.8389551 -1.7100842 -1.2498775 -0.10150821
000030 83 89 76 bf cc bf 1f 3e 26 c3 25 3d 48 10 b8 3f
       -0.96303576 0.15600508 0.04046931 1.4379969
000040 79 1c 92 bd 14 71 e1 bc d3 ae 07 bc 31 45 82 3c
       -0.07134337 -0.02751974 -0.008281427 0.015902134
000050 e3 e6 08 bf 31 6d d0 be ec 8b 33 bf b3 63 ad 3c
       -0.53477305 -0.40708306 -0.7013538 0.021165704
000060 7e ff 24 be 64 f4 d3 bf d2 f0 ea be 0a 02 c6 3e
       -0.16113088 -1.6558957 -0.45886856 0.3867343
000070 61 0c 25 bd 2b b7 f3 bd 1b fc 14 3f df 50 6c bb
       -0.04029501 -0.11900171 0.5819718 -0.0036058945
000080 4a b3 a5 3d 94 5d d4 3b 60 08 4b be 9a 58 e9 3c
       0.08090837 0.006480882 -0.19827414 0.028484631
000090 a2 c1 95 3f 8f d2 02 bf 14 bc 57 bd 60 19 3a 3f
       1.1699717 -0.51102537 -0.0526696 0.7269497
0000a0 c4 10 b2 be f6 4c 11 3f 83 b7 51 be a5 3d 05 bd
       -0.34778416 0.5675806 -0.2048016 -0.032529492
0000b0 fc 57 07 be 6e df b8 3f 36 58 3d 3c bc 8b 28 3e
       -0.13217157 1.4443185 0.011556676 0.16459554
0000c0 e9 c9 fc 3d 64 56 4a bc 3c bb d3 be 10 ed dc be
       0.12343199 -0.012349699 -0.41353786 -0.43149614
0000d0 29 50 03 3f 65 e1 21 3c 5d e3 60 bf 66 70 e1 bc
       0.5129419 0.009880398 -0.8784693 -0.027519416
0000e0 98 30 40 be 9a 5d 6a 3d fd 9a 8d 3f 58 66 1b bf
       -0.18768537 0.05721817 1.1062924 -0.6070304
0000f0 80 bb b3 be 3c 9c 2d be b7 61 1c bd 40 48 07 bf
       -0.3510399 -0.1695413 -0.038179126 -0.5284462
000100 c5 f6 4c 3d 07 b0 96 bc 39 10 c5 3f 36 8d 5d 3f
       0.050040025 -0.018394483 1.5395576 0.86543596
000110 d0 26 97 be fe 15 79 bf 43 db bd 3c 00 df 32 bf
       -0.295218 -0.9729918 0.023175841 -0.6987152
000120 30 c3 b8 3e 55 8e 61 3d 5d 23 db 3b 4e 4f 1e 3f
       0.36086416 0.05506738 0.0066875652 0.6183976
000130 ba b9 c0 3b ac 74 13 3f 19 98 d5 3e 05 1e 02 bd
       0.0058815153 0.575999 0.41717604 -0.03176691
000140 04 b7 a1 3e e1 47 b7 3d 01 38 ed 3e 94 ec 42 3f
       0.31584942 0.08949257 0.4633179 0.7614224
000150 d4 aa 4d bd 2e df 37 bc a4 9b a5 bd 15 12 23 3f
       -0.050211743 -0.011222644 -0.08086327 0.63699466
000160 ec 55 53 3d 81 98 4d bd e0 48 80 be b7 d6 80 3d
       0.051595613 -0.050194267 -0.250556 0.062909536
000170 16 f1 09 bf d0 e0 b4 be 04 17 d5 3e 3c a8 6f bb
       -0.5388349 -0.35327768 0.41619122 -0.0036568781
000180 e9 fc c0 3e 81 00 84 3e d4 a2 9b ba 55 5e a0 3e
       0.37692955 0.25781634 -0.0011874088 0.3132197
000190 52 ee 0c 3f f0 bc 1b 3f 11 8f 79 3b 7d f2 5a bf
       0.5505115 0.6083517 0.003807966 -0.8552626
0001a0 61 92 79 3d 48 e8 b5 3e 8c 0c 9a 3e f8 4c 6b be
       0.060930613 0.3552878 0.30087698 -0.2297858
0001b0 20 08 3a 3f f8 d6 99 3f 83 ed 0f 3f 6e 96 ce 3d
       0.7266865 1.2018728 0.5622179 0.10087286
0001c0 41 10 18 bf b4 22 62 bc 33 0d fc bb 84 00 0b 3f
       -0.593998 -0.013802219 -0.007692003 0.5429766
0001d0 58 e0 69 bf 0b ef a9 3f c3 bd db 3d ed 02 ad 3f
       -0.91357946 1.3276075 0.107295536 1.3516518
0001e0 44 82 9f 3f 3f 1b 8b bc d4 af 05 bf c8 76 e0 3e
       1.2461629 -0.016980765 -0.5222142 0.43840623
0001f0 88 6c 32 3f 1a cd b2 bf c7 0e 64 3e 72 33 76 bf
       0.69696856 -1.3968842 0.22271262 -0.9617225
