AI/Image-Generation/PGGAN/model/32x32/generator_model/torgb_layers_1.pt (torch, 1667 bytes, 1 tensors)

conv.weight f4 [1, 128, 1, 1]
-0.059888016 2.8108597 -0.24051504 -1.2589433 1.3865663 0.43872315 -1.1295656 -0.1728951
0.7972862 -1.8021691 -1.004266 -0.06967082 -0.87605864 0.5054809 0.04856152 1.5382185
-0.07969947 -0.11673093 0.0016168148 0.030864557 -0.39362884 -0.4517144 -0.7071972 0.007865852
-0.091214254 -1.5465733 -0.35870492 0.41044018 -0.30773887 -0.09317903 0.9682266 -0.016701266
0.09574282 0.03170674 -0.116972275 0.037627485 1.3254206 -0.23277338 -0.2008324 0.6625123
-0.5213471 0.68796355 -0.18947892 0.18695591 -0.3404397 1.4091411 0.086628005 0.24656884
0.106974 0.18469523 -0.3258078 -0.43943498 0.5253985 -0.15835164 -0.9361531 -0.10887414
-0.19396028 0.07207697 1.4587667 -0.3954976 -0.20062056 -0.14938626 -0.019911658 -0.5071907
-0.18362626 -0.10059837 1.5716488 1.1913667 -0.19615568 -0.896493 -0.05416373 -0.75737894
0.3290902 0.07820939 0.06990076 0.96272296 0.013619139 0.7065573 0.36213276 -0.09374121
0.37448904 0.051118087 0.377778 0.8706498 -0.05878317 0.0005043761 -0.10522446 1.0692207
0.015331942 -0.02639248 -0.16821285 0.09829985 -0.53509086 -0.46138847 0.32635194 0.0031713939
0.5360935 0.23677655 -0.03025794 0.17054942 0.3811604 0.5682414 -0.18193305 -0.88211644
0.13748112 0.39919516 0.32916167 0.024035297 0.84114397 1.0891756 0.68837017 0.008410227
-0.6132656 -0.12608527 0.080157585 0.4330765 -0.8891151 1.2833349 0.15150358 1.3342264
1.3292732 0.016698945 -0.5021005 0.4144753 0.96754 -1.4151278 0.2842354 -0.89131737
00000000: 234d 75bd 20e5 3340 9349 76be 0e25 a1bf
00000010: 017b b13f 52a0 e03e 9b95 90bf 6a0b 31be
00000020: f31a 4c3f 7aad e6bf ca8b 80bf 93af 8ebd
00000030: 6145 60bf 3267 013f 72e8 463d 58e4 c43f
00000040: 7a39 a3bd a010 efbd 4deb d33a abd7 fc3c
00000050: b889 c9be 1c47 e7be e00a 35bf c6df 003c
00000060: 8ace babd 1df6 c5bf 2ca8 b7be 3725 d23e
00000070: f38f 9dbe a6d4 bebd b3dd 773f 18d1 88bc
00000080: d014 c43d edde 013d 298f efbd 471f 1a3d
00000090: 62a7 a93f 255c 6ebe 02a7 4dbe 689a 293f
000000a0: 0177 05bf 611e 303f c306 42be 5f71 3f3e
000000b0: 1d4e aebe bc5e b43f 066a b13d 8b7c 7c3e
000000c0: 2f15 db3d bf20 3d3e 48d0 a6be 9ffd e0be
000000d0: 8480 063f ef26 22be bba7 6fbf 68f9 debd
000000e0: 869d 46be 179d 933d deb8 ba3f a97e cabe
000000f0: 7a6f 4dbe b6f8 18be c61d a3bc 40d7 01bf
00000100: 8608 3cbe 8506 cebd ca2b c93f b47e 983f
00000110: 09dd 48be 9180 65bf cada 5dbd 96e3 41bf
00000120: 837e a83e 3f2c a03d 2128 8f3d 0375 763f
00000130: cf22 5f3c f0e0 343f 7769 b93e 64fb bfbd
00000140: 07bd bf3e 3361 513d 1e6c c13e e8e2 5e3f
00000150: 9fc6 70bd 1b38 043a ec7f d7bd 39dc 883f
00000160: d332 7b3c 0b35 d8bc fd3f 2cbe 6f51 c93d
00000170: b7fb 08bf 1c3b ecbe 9a17 a73e 29d7 4f3b
00000180: 6c3d 093f 8d75 723e 80df f7bc 82a4 2e3e
00000190: 7527 c33e 4578 113f a84c 3abe 62d2 61bf
000001a0: dac7 0c3e 4f63 cc3e e187 a83e ace5 c43c
000001b0: 3655 573f 1b6a 8b3f 0739 303f 0ccb 093c
000001c0: f9fe 1cbf 7f1c 01be a929 a43d 34bc dd3e
000001d0: 0c9d 63bf 5144 a43f c123 1b3e eec7 aa3f
000001e0: a025 aa3f 3acc 883c a989 00bf 1b36 d43e
000001f0: b4b0 773f e822 b5bf 4d87 913e 602d 64bf
