AI/Image-Generation/PGGAN/model/32x32/generator_model/torgb_layers_3.pt (torch, 1667 bytes, 1 tensors)

conv.weight f4 [1, 128, 1, 1]
0.0026746388 -0.2865614 0.16126941 -0.24880217 -0.0046162293 -1.4010915 -1.4673612 -0.0009897655
-0.816817 -0.5324713 0.21136402 -0.4563568 -0.82025886 -0.20885003 0.4064113 0.2701434
1.2283018 -0.82829523 0.6928868 -1.6542624 0.9176428 -0.024554927 0.5228679 -0.85274386
-1.2135018 0.28787535 -0.100989565 -0.10233288 1.0043869 0.63079315 -0.33887276 0.019861171
-0.077364735 0.0042217164 -1.545784 0.97258264 0.23355111 -0.016217075 -0.022306532 -0.025030807
-0.44841003 -0.024682716 -0.41428047 -0.040035237 1.7763237 0.035342764 0.007829633 -1.3188963
0.19111626 0.39830747 -1.3278168 -1.2171402 -0.7711975 -1.9885921 0.050273377 0.55883
-0.7297328 -0.17000426 -0.04766474 -1.024542 0.31987125 -1.2407542 -0.9833504 3.3313982
0.01786775 -0.011581491 -2.3891554 -0.07606608 1.0282445 -1.7264909 -0.9913679 0.28043157
-0.49371615 -1.0019228 -1.5979757 -2.3677979 -2.4055636 -0.46711123 0.39563626 0.00856315
1.2968131 1.13092 0.93254584 -0.29710832 0.0025405537 -2.2453225 -0.017422155 1.6663386
-0.8565523 -0.20473579 0.2659348 -0.8850834 -0.6913071 -1.0143384 0.3275465 0.86697793
-0.13089208 0.45140734 -1.9088992 -1.8473427 0.62845 0.20459944 -0.09286487 0.5932202
-0.9248732 0.032195993 -0.02704082 0.09002624 0.12342865 -0.02287661 0.266172 0.14866975
2.3208308 -0.0039267354 -0.0028936581 -1.1531262 -0.463576 0.035018448 -0.4245123 -0.3403056
-0.47798204 0.879024 -0.38957486 0.47096407 1.028822 0.228397 0.60688686 0.64369035
00000000: fe48 2f3b 2db8 92be cf23 253e ffc5 7ebe
00000010: bd43 97bb f756 b3bf 7ed2 bbbf 05bb 81ba
00000020: eb1a 51bf 0a50 08bf cf6f 583e 99a7 e9be
00000030: 7cfc 51bf c8dc 55be 2415 d03e 3c50 8a3e
00000040: fe38 9d3f 280b 54bf 0861 313f dfbe d3bf
00000050: a3ea 6a3f 6a27 c9bc acda 053f 6c4d 5abf
00000060: 0754 9bbf 6664 933e 9ed3 cebd e793 d1bd
00000070: c08f 803f a97b 213f bb80 adbe e5b3 a23c
00000080: 6771 9ebd 5356 8a3b 40dc c5bf 2dfb 783f
00000090: 0628 6f3e acd9 84bc 30bc b6bc 680d cdbc
000000a0: 0096 e5be 6833 cabc 921c d4be fdfb 23bd
000000b0: 935e e33f 93c3 103d dc47 003c 98d1 a8bf
000000c0: fbb3 433e f5ee cb3e e7f5 a9bf 40cb 9bbf
000000d0: 336d 45bf 308a febf 75eb 4d3d 7c0f 0f3f
000000e0: c5cf 3abf 9915 2ebe 1a3c 43bd 3124 83bf
000000f0: 2ac6 a33e 09d1 9ebf dabc 7bbf a135 5540
00000100: 635f 923c 4bc0 3dbc ece7 18c0 88c8 9bbd
00000110: 849d 833f a7fd dcbf 49ca 7dbf ba94 8f3e
00000120: 5dc8 fcbe 023f 80bf 788a ccbf 008a 17c0
00000130: c1f4 19c0 3429 efbe d690 ca3e 744c 0c3c
00000140: f9fd a53f fdc1 903f 53bb 6e3f 951e 98be
00000150: 6b7f 263b 5db3 0fc0 e8b8 8ebc 954a d53f
00000160: 0347 5bbf 42a6 51be 9b28 883e d394 62bf
00000170: 81f9 30bf d7d5 81bf 2db4 a73e 44f2 5d3f
00000180: 9308 06be dd1e e73e cf56 f4bf ba75 ecbf
00000190: 19e2 203f 8482 513e f02f bebd 47dd 173f
000001a0: 7dc4 6cbf f2df 033d b684 ddbc ad5f b83d
000001b0: 29c8 fc3d ba67 bbbc b247 883e e23c 183e
000001c0: 7e88 1440 d8ab 80bb 87a3 3dbb a499 93bf
000001d0: d559 edbe 816f 0f3d ad59 d9be 893c aebe
000001e0: 10ba f4be b807 613f 5b76 c7be 3422 f13e
000001f0: 70b0 833f e7e0 693e f05c 1b3f e4c8 243f
