AI/Image-Generation/PGGAN/model/16x16/generator_model/torgb_layers_2.pt (torch, 1667 bytes, 1 tensors)

conv.weight f4 [1, 128, 1, 1]
-0.3567549 -1.572736 0.49559146 -0.108195014 0.585694 -0.31106746 -0.8624828 -0.02461287
-0.011679278 -0.2872617 -0.3197391 0.54756355 0.16331568 -0.33337426 -0.045763418 -0.0064488775
-0.04312203 -2.1637068 0.010052314 0.0031623545 0.4477609 0.15728389 -1.9932139 0.0019302198
-0.3708812 1.9757065 -0.04432405 -0.13309966 -8.0444115e-05 -0.0032196396 0.041613024 -0.3919905
0.012957458 0.22562453 0.13884787 -0.017529758 -1.6153893 0.073772825 -0.940862 0.014633549
0.05008441 1.4404883 0.53339994 -0.020031987 0.12728497 0.9436807 -1.7324482 -0.21931984
-0.7161388 0.1468114 0.5609198 0.19865891 -0.023659682 -1.8125895 0.021819953 -0.16899422
1.53484 -0.5628144 -0.34003526 1.4736773 -0.037548244 0.47249952 0.010782586 -0.18096153
0.36935762 0.28839526 -0.64373887 0.011156655 0.031776216 -0.5355045 0.12703806 -1.239339
-0.3425071 0.16800547 -0.8473614 -0.31888977 -0.8031355 1.0837154 0.9816155 -0.011032246
0.009404883 1.969321 1.9485207 0.16340692 -1.943768 0.95967203 -0.93561804 -0.017565005
-1.0268887 -0.023200622 1.041983 -1.1228333 1.1970245 -0.67383283 -0.5803033 -1.5760868
-0.35391268 0.27620757 -1.471013 0.22177917 -0.23163086 0.3416846 -0.8102194 -0.0064857528
0.88554996 1.0783508 -0.398741 0.36369878 -0.030082967 -0.32376716 -0.2139081 0.0087976055
0.57966906 -0.9093414 -0.005912346 0.29857174 -0.00748162 0.6581882 0.08613396 0.78272235
-0.38315013 0.15937027 0.10974675 -0.67668754 0.19037129 0.009003722 0.28122762 1.2229587
00000000: 94a8 b6be 6a4f c9bf 2abe fd3e 5995 ddbd
00000010: 0bf0 153f 3c44 9fbe accb 5cbf eea0 c9bc
00000020: 715a 3fbc f713 93be d8b4 a3be 202d 0c3f
00000030: 3a3c 273e 08b0 aabe 6c72 3bbd 1b51 d3bb
00000040: baa0 30bd 2c7a 0ac0 76b2 243c 813f 4f3b
00000050: eb40 e53e 070f 213e a221 ffbf 6eff fc3a
00000060: 24e4 bdbe f3e3 fc3f 238d 35bd 474b 08be
00000070: 1bb4 a8b8 9700 53bb 6b72 2a3d fbb2 c8be
00000080: 854b 543c 1e0a 673e 232e 0e3e 919a 8fbc
00000090: 14c5 cebf 3516 973d 55dc 70bf 8ec1 6f3c
000000a0: 4f25 4d3d ec61 b83f e68c 083f 1f1a a4bc
000000b0: fe56 023e 0f95 713f ddc0 ddbf 6195 60be
000000c0: df54 37bf ba55 163e 7198 0f3f 3e6d 4b3e
000000d0: f3d1 c1bc ef02 e8bf c2bf b23c d20c 2dbe
000000e0: a375 c43f 9b14 10bf 1a19 aebe 75a1 bc3f
000000f0: 30cc 19bd 75eb f13e 72a9 303c fb4d 39be
00000100: 711c bd3e 8ba8 933e 12cc 24bf 67ca 363c
00000110: c727 023d d316 09bf 4416 023e a9a2 9ebf
00000120: 175d afbe a009 2c3e adec 58bf 8545 a3be
00000130: 4a9a 4dbf 30b7 8a3f 274b 7b3f 98c0 34bc
00000140: f016 1a3c b612 fc3f 2069 f93f 2554 273e
00000150: 64cd f8bf 11ad 753f aa84 6fbf 7ce4 8fbc
00000160: 1771 83bf 3b0f bebc b35f 853f 00b9 8fbf
00000170: 1938 993f 4f80 2cbf c28e 14bf 36bd c9bf
00000180: 0b34 b5be 146b 8d3e 274a bcbf 141a 633e
00000190: a430 6dbe 49f1 ae3e 8a6a 4fbf 7086 d4bb
000001a0: 67b3 623f 6607 8a3f c827 ccbe ba36 ba3e
000001b0: 8e70 f6bc cfc4 a5be ba0a 5bbe d523 103c
000001c0: 3165 143f 99ca 68bf 5abc c1bb 65de 983e
000001d0: 6128 f5bb 067f 283f 0067 b03d 7e60 483f
000001e0: 412c c4be f631 233e e7c2 e03d 653b 2dbf
000001f0: b1f0 423e 5984 133c 11fd 8f3e e989 9c3f
