AI/Image-Generation/PGGAN/model/4x4/generator_model/torgb_layers_0.pt (torch, 1667 bytes, 1 tensors)

conv.weight f4 [1, 128, 1, 1]
00000000: b113 6cbe 43fd 613e 7cd5 793e 8238 c7bf
00000010: d882 a33f 253a c3bf 5576 02c0 d956 eebf
00000020: 2ce7 c83e 0528 2abf 0b9d 083f a2f7 503e
00000030: f923 9f3f 15a0 fabe c9f8 1c3e 83f0 d93e
00000040: 1e85 f5bf 5642 babc 7576 c13e 19fc ad3d
00000050: 4713 793d 64f0 493e 1bec fe3f bdd8 9dbe
00000060: 1f94 45bf f66f 48be 2c30 603f dd50 a7bf
00000070: 8d55 313f 8702 84bf 7e77 58bf 65ac 623f
00000080: e446 f3bd bd58 e93e b1f5 403d 2fe9 ab3f
00000090: d97a 4c3e d2aa 1dbf 5007 8bbd 0ff4 2c3f
000000a0: 8b7f 54bf 590a 70be ed3c 573e 4131 843f
000000b0: a22c 1fbf 3539 bebd becb bbbc a9a7 f33d
000000c0: 30e4 a3be 09f8 923e 9d56 b8bf 9d51 15c0
000000d0: 48e1 c2bc 5f83 10bf 7ad9 35bf 0948 343f
000000e0: 13c6 cfbf 48af 963d 1269 51be 2a07 763e
000000f0: b372 953e f97e 0840 03ae 1e3f b98e 3abf
00000100: 3f7e 0940 9150 9d3e 72b8 3c3f 155f f73e
00000110: d4a9 7ebe bf24 debf dfc5 b1be 6389 b63d
00000120: e4e4 193e a3e5 69bf 7a73 a93e f508 86be
00000130: 7469 f33e 3589 42be be47 8bbe fc0f 85bf
00000140: 33f8 a83e ddbd 73be a013 133e 00d6 f63e
00000150: 0105 b03e f22c 1a3e 4860 c43e 0081 1fbc
00000160: 8d76 9f3f a880 d53f 23df cebe 9e69 4340
00000170: fa51 e03f eac7 a33f a106 e3be 0b22 5ebd
00000180: a6fe f5bd 6a18 5c3e ecf4 edbe cd53 f0be
00000190: f7d6 483e 32ce 2d3e efe4 d5be 1170 a6bc
000001a0: db4f e9bd cd2e 373f 9154 c8bf 8b77 8fbf
000001b0: fff4 fdbe a33b 37be 923f 84be 9dfd ab3f
000001c0: b809 513e 9eef 793e 9d75 48be 832b ccbf
000001d0: ff91 f33e a300 05bf 9eba 78be 6d8f 473e
000001e0: 6053 82be 3ce0 c23f 363e 133f a2ae 933e
000001f0: 0423 f23d 6380 863f 4977 7d3e eba4 37be
-0.23054387 0.22069268 0.24397844 -1.556412 1.2774305 -1.5252119 -2.0384724 -1.8620254
0.3923887 -0.66467315 0.5336463 0.20406964 1.2432853 -0.48950258 0.15329279 0.42566308
-1.9181249 -0.02273671 0.37785688 0.084953494 0.0608094 0.19720608 1.9915804 -0.3082942
-0.7717914 -0.1957396 0.87573504 -1.3071553 0.69271165 -1.0313271 -0.8455733 0.88544303
-0.11878756 0.45575514 0.04710931 1.3430537 0.19968738 -0.61588776 -0.06788504 0.67559904
-0.83007115 -0.23441447 0.21019335 1.0327531 -0.6217748 -0.09288255 -0.0229243 0.11897213
-0.3201003 0.2870486 -1.4401432 -2.3331063 -0.023789063 -0.56450456 -0.7103497 0.70422417
-1.6232322 0.07357651 -0.20450237 0.2402617 0.2918907 2.1327498 0.6198427 -0.7287403
2.1483305 0.3072553 0.7371894 0.4831473 -0.24869472 -1.7354964 -0.34721276 0.08912923
0.15028721 -0.9136602 0.33095914 -0.2617871 0.47541392 -0.18997653 -0.27203172 -1.0395503
0.3300186 -0.23802896 0.14362955 0.48210144 0.34378818 0.15056208 0.38354707 -0.009735346
1.2458054 1.6679888 -0.40404615 3.0533214 1.7525017 1.2795384 -0.44340995 -0.054231685
-0.12011461 0.21493688 -0.46475923 -0.46938935 0.19613253 0.16973189 -0.41776225 -0.02031711
-0.11392184 0.7155579 -1.5650808 -1.1208357 -0.4960098 -0.17893843 -0.2582975 1.3436772
0.20413864 0.24407813 -0.19576116 -1.5950779 0.47572324 -0.51954097 -0.24289939 0.19488306
-0.25454235 1.5224681 0.575168 0.28844172 0.11823085 1.050793 0.24752535 -0.17934005
