AI/Image-Generation/PGGAN/model/4x4/discriminator_model/fromrgb_layers_0.pt (torch, 2187 bytes, 2 tensors)

bias f4 [128]
000000 2b 3d 61 3e 37 e7 29 3e 76 78 53 3d e5 b4 4f be
       0.2199599 0.16592108 0.051628552 -0.2028385
000010 11 e6 32 bd 2b 10 4e be 3b ae 63 be b8 eb f2 3d
       -0.04367644 -0.20123355 -0.22234432 0.11861366
000020 0a af 09 3e 40 e4 0a be 5d ff fa bd 09 96 29 be
       0.13445678 -0.13563633 -0.12255738 -0.1656114
000030 5b 74 b2 3e 62 cc 96 bd ee 59 30 3d 7e 13 94 bd
       0.34854397 -0.07363202 0.043054514 -0.0723028
000040 d4 d2 00 3e 41 1f d8 3c 12 ac 9f bc 43 9b 46 be
       0.12580425 0.02638209 -0.01949123 -0.19395165
000050 0a 0c 53 3e 9e 0b 29 3e 58 05 cf 3d 7c 1b 15 bd
       0.20610061 0.16508338 0.10108441 -0.036403164
000060 54 24 c5 bd 20 ce 9d 3d ee eb ba be a3 ec 3c be
       -0.0962607 0.07705331 -0.36508125 -0.18449645
000070 0e ef 00 3d 9e 6a e1 3d 46 d5 17 be df 38 af bd
       0.03147798 0.11006664 -0.14827451 -0.08555769
000080 09 b7 ad bd 7e 85 27 3d ac 29 53 be ab 27 e5 bd
       -0.08482177 0.040898792 -0.20621365 -0.11189207
000090 8c a9 5c be d0 12 e1 3d d7 fa 5c be f8 9c a3 bd
       -0.21549052 0.10989916 -0.21580063 -0.07988924
0000a0 eb 92 9b bd d0 43 d0 bc 48 22 24 3e d2 22 7d be
       -0.07596382 -0.02542296 0.16028702 -0.24720314
0000b0 a4 4e 80 bd d5 2c 41 be db 67 72 be 81 4e 00 3e
       -0.062649995 -0.18864758 -0.2367243 0.12529947
0000c0 8f 7d 90 bc c2 b9 48 be 1e 1d 31 3e 39 c9 f1 bc
       -0.017637996 -0.19602111 0.17296264 -0.029514896
0000d0 be 35 34 be 5d 7c a2 be 6b ed a2 3d aa 43 2d be
       -0.17598626 -0.31735507 0.0795544 -0.16920343
0000e0 72 db 65 be b0 9d ce 3b 07 42 be 3e 24 12 23 be
       -0.22446993 0.006305419 0.3715975 -0.15924889
0000f0 12 30 0a be b9 14 55 3c 25 a5 dd 3b 21 63 a1 3e
       -0.134949 0.013005429 0.0067640715 0.31520942
000100 79 ee c2 3c b8 5a bc 3d b9 80 8f 3e ca e5 89 3c
       0.023795353 0.09196991 0.28027895 0.016833205
000110 6d 27 e0 3d 0b 2b f4 bd fc 74 36 3d 19 19 5d 3e
       0.1094502 -0.11922272 0.04454516 0.21591605
000120 a0 66 70 be 4d 1f ad bb db 9d ab bb bb 54 7e 3c
       -0.23476648 -0.0052832724 -0.0052373237 0.015523131
000130 5c ad d1 bd e0 13 27 bd 5f 5d 12 be 57 f9 7d 3a
       -0.10238144 -0.04079044 -0.14293431 0.00096883386
000140 23 24 f1 bd 65 ab a2 3d 32 27 3e bd c7 51 46 be
       -0.11774471 0.07942847 -0.0464241 -0.19367133
000150 7c 97 0d be b9 6a 1b bb a1 c7 12 be d0 b6 05 3d
       -0.13827318 -0.0023714735 -0.14333965 0.032645047
000160 6b a3 25 bc 56 8c 53 bd ef 11 b7 3e 4e 67 a8 3d
       -0.010109763 -0.051647507 0.3575587 0.08222829
000170 96 ff 46 be 5a c3 69 be 62 cb 24 be 67 ef 23 bd
       -0.19433436 -0.22828427 -0.1609321 -0.040023234
000180 2a ad 88 bd 75 1e 76 3e 1b 67 ac bd c8 a9 66 3e
       -0.066736534 0.24035056 -0.08418103 0.22525704
000190 2a ad 72 be 66 f3 d4 bc a9 7b 0e be 99 3f 2f 3d
       -0.2369887 -0.025994968 -0.1391436 0.04278526
0001a0 bc 23 e1 3d ad 3a 88 be 7a d2 24 be 53 09 66 be
       0.10993144 -0.26607266 -0.16095915 -0.22464494
0001b0 50 c3 6c bd 66 c9 07 3e 67 26 68 bd 42 23 76 be
       -0.057803452 0.13260421 -0.05667725 -0.24036887
0001c0 41 95 38 bd 28 2e 3d bd 00 f9 71 bd 41 1b 04 3e
       -0.045064215 -0.046186596 -0.059075356 0.12901022
0001d0 a2 ec 07 be d8 c3 af be 31 e8 34 bd e5 b0 fd bd
       -0.13273862 -0.34329104 -0.044166747 -0.123872556
0001e0 5a a1 26 3a 49 f6 aa bb 97 d6 11 be 37 e6 b1 3e
       0.0006356441 -0.0052173478 -0.14242016 0.34745952
0001f0 43 cd ca bb 22 66 82 3e 8b 11 42 3d ba ee 95 3d
       -0.00618902 0.25468546 0.04738001 0.07320924

conv.weight f4 [128, 1, 1, 1]
000000 f8 cd f7 be 5e d1 c5 be 03 65 d1 be 6a 98 65 3e
       -0.4839933 -0.38636297 -0.40897378 0.22421423
000010 96 5b 15 be 73 55 76 3e ea 08 ae 3f 48 a8 17 bf
       -0.14585719 0.24056034 1.359647 -0.5924115
000020 c2 e7 05 bf 30 a7 67 3f 66 86 76 3f 55 bf e3 3e
       -0.5230676 0.9048948 0.96298826 0.44481912
000030 22 6a 83 bf 0c 9a e5 3e 3b 2a 97 3f 3d 53 6d 3f
       -1.0266764 0.4484409 1.1809763 0.92705137
000040 50 48 8b bf 56 dd a5 be d9 2d 1e bc ed 1b 73 3f
       -1.0881443 -0.32395428 -0.009654486 0.94964486
000050 4c 5f d4 bf f8 c7 19 bf b8 64 e3 be dc 69 48 3f
       -1.6591582 -0.60070753 -0.4441278 0.7828653
000060 70 b9 c7 3e d5 34 e0 bf b9 58 f8 3f c3 71 3b 3e
       0.39008665 -1.7516123 1.9402076 0.18305115
000070 a5 dc df be 1d 34 e1 be 91 cf 45 3f 0d 36 15 3f
       -0.43723026 -0.43985072 0.77269846 0.582856
000080 0f ce 34 3f 01 00 34 3c 0d 50 57 3f 4a 46 89 3e
       0.7062692 0.010986329 0.8410652 0.2681144
000090 05 b2 bc 3f 53 09 b1 bf 2f 50 89 3f 69 cc 6c 3f
       1.4741827 -1.383097 1.0727595 0.92499405
0000a0 3b 27 81 3f e8 ec 9a 3f 44 78 b3 be 10 ea d0 3e
       1.0090097 1.2103548 -0.35052693 0.40803576
0000b0 56 b4 09 3f 40 35 77 3f 64 5b 71 3f 52 ae 79 bf
       0.53790796 0.9656563 0.94280076 -0.97531617
0000c0 94 65 b4 3e 27 32 3a 40 d5 d9 df be 7b 58 92 3d
       0.35233748 2.909311 -0.4372088 0.071457826
0000d0 ba cd 78 3e 1a 1c db 3f 96 de 09 3d 53 a9 87 3f
       0.24297228 1.7117951 0.03365954 1.0598549
0000e0 a1 1c b2 3e 34 db e0 3e 05 8f 5b bf 3d 8b c7 3e
       0.34787467 0.4391724 -0.85765105 0.38973418
0000f0 82 a7 91 3f 1a 15 f0 bf 18 7f cf 3e 95 d4 28 bf
       1.1379244 -1.875644 0.40526652 -0.65949374
000100 ca 39 ea bf 4c 1e 94 bd 2a 2c 21 c0 ea 28 68 3f
       -1.8298886 -0.07232341 -2.5183206 0.9068743
000110 a1 a1 d2 be f6 1d df 3d 73 27 fa be f4 f3 2c bf
       -0.41138938 0.108943865 -0.48858222 -0.6755974
000120 f4 50 8b 3f 41 8c 15 c0 4c 4f 17 3e 77 18 93 bf
       1.088408 -2.3366854 0.14776343 -1.1491841
000130 36 68 0d 3e dd 76 89 3c 03 47 ce 3f ce 83 86 bf
       0.13809285 0.016780311 1.6115421 -1.0508974
000140 f6 83 1e 3d 04 c5 8e be 04 72 03 3f 67 d8 3f 3f
       0.038700067 -0.27884686 0.5134585 0.7493958
000150 4e af 65 3e 54 89 bb 3d 83 44 5c 3e 1d 15 98 bf
       0.22430155 0.09157053 0.2151051 -1.1881443
000160 38 b0 39 3e d1 57 4f 3f 38 6c 31 bf 62 85 83 bf
       0.18133628 0.8099337 -0.69305754 -1.027508
000170 a3 63 e3 3f f9 8c 2e 3e 6a ba 1c 3f 25 05 86 be
       1.7764782 0.17045964 0.61221945 -0.261758
000180 57 38 4f 3e d9 2f 0c c0 2a 7c 6b 3d eb 04 ba bf
       0.20236336 -2.1904204 0.05749146 -1.4532751
000190 34 4a a5 3f 72 cf 85 3e 10 ca 00 3f 1d d7 99 bf
       1.291327 0.2613483 0.5030832 -1.2018772
0001a0 44 52 17 bf 85 a3 f8 3e 0f 2c 24 3f 6f 5a 29 3f
       -0.591099 0.48562256 0.6412973 0.66153616
0001b0 de 0a 0b 3f 85 51 f5 bd 9b 23 2c 3f 7b 49 96 3f
       0.54313457 -0.11978439 0.6724183 1.1741174
0001c0 ea 2a fb 3e 94 7a 14 3f c9 4d ae 3f 76 de c3 bf
       0.49056178 0.5799954 1.3617488 -1.5302265
0001d0 3b ab 62 3e 03 0f f3 3f 1d a5 88 3c 8b d8 24 40
       0.22135632 1.8988956 0.016680295 2.5757167
0001e0 a9 0f 47 be e8 d7 c7 3e 27 4a 8c 3e 91 44 1e bf
       -0.19439568 0.3903191 0.27400324 -0.61823374
0001f0 8d fd c6 3b bc 49 d5 bf 53 60 02 c0 45 9d b2 3e
       0.006072706 -1.6663127 -2.0371292 0.34885612
