AI/Image-Generation/PGGAN/model/16x16/discriminator_model/fromrgb_layers_1.pt (torch, 2187 bytes, 2 tensors)

bias f4 [128]
000000 3e e4 54 bf c7 db ef be 14 10 99 be 0d e6 b6 be
       -0.8316077 -0.46847364 -0.2989508 -0.3572239
000010 87 b8 ce be 30 22 e7 3e 76 e1 a5 be 59 c2 a9 3e
       -0.40375158 0.4514327 -0.32398576 0.33156088
000020 ea 3c 0a bf 7a af 06 bf 55 3d 1d bf f6 ee e3 3e
       -0.539992 -0.52611506 -0.6142171 0.4451825
000030 be 25 a4 be 1a 77 9a 3e 34 ea 61 3e c0 35 12 3f
       -0.32060045 0.30168992 0.22061998 0.57113266
000040 88 d0 10 bf be a6 7e be a3 b2 19 3f 32 13 49 bf
       -0.56568193 -0.24868295 0.60038203 -0.78544915
000050 0e de a6 3e 35 a8 52 be 37 6a 76 3e 28 42 22 3f
       0.3259129 -0.20571978 0.24063955 0.63382196
000060 c7 0b 8d 3e 8d 34 fc be 59 69 b9 be e0 4e 1b bf
       0.27548048 -0.49258843 -0.36213186 -0.6066723
000070 2b 7b d8 be 41 0b 80 3e 81 68 0d 3e d7 86 ae bd
       -0.4228147 0.25008586 0.13809396 -0.085218124
000080 49 61 96 3e b6 7d 8a bd 75 32 0f be ba 12 a0 bc
       0.29371098 -0.06762259 -0.13984092 -0.01954018
000090 2d e4 1c bf 7e be e2 3e a2 0f 17 3f a4 f6 19 be
       -0.6128567 0.4428596 0.5900823 -0.15035492
0000a0 f6 9e 19 bf 37 ac db be 3b f9 03 3f ff d9 2a bf
       -0.6000818 -0.42904827 0.5155217 -0.66738886
0000b0 5d ee 76 bd 55 a0 c6 be e0 36 b5 be 78 24 c7 be
       -0.060285915 -0.387942 -0.3539343 -0.3889501
0000c0 01 47 32 bf fd 82 2b 3e b9 f6 f2 be 1c b5 27 3e
       -0.69639593 0.16749187 -0.4745386 0.16377681
0000d0 3f 53 c1 3e a1 47 06 3e ba ff 09 3f cb 8b e6 3d
       0.37758824 0.13113262 0.5390583 0.11257132
0000e0 47 af 6f be 13 c6 29 3e 57 ee 11 3f c3 dc 1b 3f
       -0.23406707 0.16579466 0.570043 0.6088373
0000f0 40 5f 98 be 58 d0 ab be e4 03 36 be e6 2c d9 be
       -0.2976017 -0.3355739 -0.17774922 -0.42417067
000100 32 59 a4 3e 45 d9 f2 be 6d 28 4c bf 11 85 3f 3e
       0.320993 -0.47431388 -0.79749185 0.18703105
000110 2d 93 88 3e d6 cf 1f bf 18 12 3e 3f fd 11 16 bf
       0.26674786 -0.6242651 0.7424636 -0.586212
000120 ce b0 08 3d 1b 5d f7 be 00 7a a1 be 46 c3 ae 3e
       0.03337174 -0.4831322 -0.3153839 0.34133357
000130 32 e3 00 3e 2d 13 0f bf 02 13 48 be 81 4c 88 3e
       0.12586668 -0.55888635 -0.19538501 0.26620868
000140 01 20 b0 be e7 ec a9 be 2b 31 94 3e 1a 0f 05 be
       -0.34399417 -0.33188555 0.28943762 -0.12994042
000150 b6 05 03 3e 25 94 84 be 7d 0f 0f 3f 38 91 e0 be
       0.12795147 -0.25894275 0.5588301 -0.43860793
000160 3a 56 8a be 3c 7b 10 bd 45 a2 b6 be db 48 28 3e
       -0.2701891 -0.035273775 -0.35670677 0.16434042
000170 84 0b f5 3e 71 cc d2 be b4 81 f5 be 79 fa 8b 3e
       0.47860348 -0.411716 -0.47950518 0.27339533
000180 e8 14 31 3e 2c ba 3f be e3 8b 04 bf 70 11 2e 3f
       0.17293131 -0.18723363 -0.5177595 0.6799536
000190 77 5f 2c 3f bb 4c e8 be c7 a9 7f 3e ef d4 0f bf
       0.6733317 -0.4537104 0.24967109 -0.56184286
0001a0 5a 81 0e bf 38 41 52 3f 87 69 d5 be 5d 52 1b bf
       -0.55666125 0.82130766 -0.41682073 -0.6067255
0001b0 c4 bd 96 be a5 11 10 be 67 58 bd be b8 8f 0e bf
       -0.29441655 -0.14069231 -0.36981508 -0.5568805
0001c0 9d 76 96 3e 22 08 36 3f e9 4e 07 3f 8d ac cf 3e
       0.2938737 0.7110616 0.5285478 0.40561333
0001d0 4b d1 bf 3e c5 38 9e 3e 8d a1 2a 3e 32 4f c6 3e
       0.37464365 0.30902687 0.16663189 0.38732296
0001e0 3a f4 e5 3e cd ec ad be 1a 2b 9f be 50 8f 15 3e
       0.44912893 -0.33969727 -0.3108757 0.1460545
0001f0 da 5e ae 3e cd 04 02 3f 3d dc 09 3f af 33 13 3d
       0.3405674 0.50788575 0.5385168 0.03593796

conv.weight f4 [128, 1, 1, 1]
000000 7d e7 d9 3f 79 2f 72 3e f9 03 b5 3f 22 61 44 3f
       1.702377 0.23650922 1.4141837 0.7671071
000010 97 92 4c 3f 8b ae a2 bf 44 d9 b7 bc d9 1d 39 bf
       0.7991118 -1.2709516 -0.022442468 -0.7231117
000020 93 4a 04 3f 47 7d 45 3f 18 0f 24 40 75 a4 63 bf
       0.5167629 0.77144283 2.5634212 -0.88922817
000030 f8 b3 23 3f 58 2b 2e bf 3f 4c 12 bf 64 fe cc bf
       0.63946486 -0.6803489 -0.5714759 -1.6015134
000040 82 aa d6 3f 04 e7 cd 3c 07 b7 d5 bf 14 64 03 40
       1.6770785 0.02513457 -1.669648 2.0529833
000050 1b 6b a2 bf 80 f4 f4 3e 7e a8 15 c0 9d 04 ba bf
       -1.2688936 0.4784279 -2.338409 -1.4532658
000060 36 f2 31 bf 45 46 72 3f c3 a1 b7 3f 28 a2 18 40
       -0.6951021 0.9463847 1.4346241 2.3848972
000070 f4 af 50 3f 1b 9b 04 c0 0a 42 a7 bf 43 45 b1 bd
       0.81518483 -2.071967 -1.3067029 -0.08655789
000080 07 56 2d be 73 45 11 be f0 ef bd bd 52 4a 8c be
       -0.16927348 -0.14186649 -0.0927428 -0.27400452
000090 78 f9 e9 3f ee c2 54 bf 13 fe 9a bf 73 85 c0 3e
       1.8279257 -0.8310994 -1.2108787 0.37601814
0000a0 5b ea 93 3f 29 16 7d 3f 9b e3 84 bf 18 cf a0 3f
       1.1555895 0.9886194 -1.038196 1.25632
0000b0 30 b6 14 be 70 c1 5b 3f 46 5e 3d 3f 30 11 4c 3f
       -0.14522624 0.8584204 0.73971975 0.79713726
0000c0 bb 5c b8 3f 40 10 22 c0 4d bb 71 3f 13 99 8a bf
       1.4403299 -2.5322418 0.94426423 -1.0827965
0000d0 13 fe b9 be f7 c6 2b bf 07 65 8c bf 67 9e 9a bf
       -0.36326656 -0.6710047 -1.0968331 -1.207959
0000e0 2f 47 69 3f df 19 d2 bf 57 9f 15 c0 6d cc 18 c0
       0.9112424 -1.6414145 -2.3378503 -2.3874772
0000f0 a0 47 46 3f a6 19 c3 3f b2 f2 e4 bd 6a c8 66 3f
       0.7745304 1.5242202 -0.11179103 0.9014956
000100 0a 24 42 bf 1c 3d 48 3f 7d 13 cc 3f f5 e0 e2 bf
       -0.7583624 0.78218246 1.5943447 -1.7724901
000110 b5 2c 11 bf 73 66 a1 3f 5e 75 f0 bf 04 04 8e 3f
       -0.5670884 1.260939 -1.8785818 1.1094975
000120 15 1b f9 be a5 52 57 3f 9d f3 26 3f 4b 2d d6 be
       -0.48653474 0.8411048 0.65215474 -0.4183143
000130 27 ef 8a bf 54 c2 90 3f 53 30 b2 3e fa 41 f7 be
       -1.0854234 1.1309304 0.34802493 -0.48292524
000140 f5 f5 1c 3f 6b 01 28 3f e3 9b 46 bf 61 68 bc 3d
       0.613128 0.65627164 -0.77581614 0.09199596
000150 19 78 c9 be 41 7e 63 3e 0c 9a 8d bf f9 9f f9 3f
       -0.3934944 0.22216131 -1.1062636 1.9501945
000160 16 8e c1 3f 49 86 15 be 22 e0 43 3f 04 00 95 bf
       1.5121486 -0.14602007 0.76513875 -1.164063
000170 4e 11 a1 bf ba a1 cd 3f 8f 2d 88 3f d9 f4 65 bf
       -1.2583406 1.606498 1.0638903 -0.8982673
000180 2d da c9 bf 11 e4 a7 3c 3b 14 e8 3f 15 40 bb bf
       -1.5769707 0.020494493 1.8131174 -1.4628931
000190 49 72 c1 bf 1e ee 86 3f 2f cd fb be 8b be 40 3f
       -1.5113002 1.0541418 -0.4917998 0.75290745
0001a0 f2 20 85 3f a7 78 0a c0 70 54 ab 3f 3a 57 94 3f
       1.0400679 -2.163614 1.3385143 1.158912
0001b0 d0 5a 70 3e 2a ea ae 3e 16 56 2f 3f 5e 62 87 3f
       0.23472142 0.34163028 0.6849073 1.0576894
0001c0 34 a1 6f bf 78 16 ee bf 1c 3f b7 bf fb c5 69 bf
       -0.9360535 -1.8600607 -1.4316134 -0.9131772
0001d0 3c 50 38 bf 4f 02 42 bf 4c 19 e0 be 98 f9 85 bf
       -0.7199743 -0.7578477 -0.437693 -1.0466795
0001e0 d5 14 69 bf 8e ad 38 3f 9f ef 8b 3f 18 40 da be
       -0.9104741 0.72139823 1.0932502 -0.42627025
0001f0 7e 93 b5 be 30 37 b1 bf fd f3 91 bf f5 87 3a bf
       -0.3546409 -1.3844967 -1.1402584 -0.72863704
