AI/Image-Generation/PGGAN/model/16x16/discriminator_model/fromrgb_layers_0.pt (torch, 2187 bytes, 2 tensors)

bias f4 [128]
0	0xbeae7bac	-0.3407873
1	0x3da5ac17	0.08089464
2	0x3d425ceb	0.047451895
3	0x3e24fca2	0.16111997
4	0xbd31d8c2	-0.043419607
5	0xbcac6bd0	-0.021047503
6	0xbec14ea0	-0.377553
7	0xbe72cf3b	-0.23711865
8	0xbe2cd09c	-0.16876453
9	0x3c7eaddf	0.015544384
10	0x3db20173	0.08691683
11	0xbdd674e8	-0.10471517
12	0xbe7f06e8	-0.24904978
13	0xbe1abe48	-0.15111649
14	0xbe1f6b13	-0.1556819
15	0xbe711cba	-0.23546115
16	0x3e52bf65	0.20580824
17	0xbe6a81c5	-0.22901066
18	0xbe5a086c	-0.21292275
19	0x3cbe1ab6	0.023206096
20	0xbb216c9c	-0.0024631387
21	0x3d37f94e	0.04491549
22	0x3d1290e8	0.035782725
23	0xbe67001c	-0.22558635
24	0x3db51f65	0.08843879
25	0xbe8f2fb5	-0.27966085
26	0xbc86e883	-0.016468292
27	0xbdd810c3	-0.10550072
28	0xbc839e82	-0.016066793
29	0x3e1786fe	0.14797589
30	0x3cebee25	0.02880008
31	0xbc9a6ef6	-0.018851738
32	0x3e2a907b	0.16656677
33	0x3e244efc	0.16045755
34	0x3c9801e9	0.018555598
35	0x3cd82d3a	0.026388753
36	0xbead9687	-0.33903906
37	0x3d538afe	0.051646225
38	0xbe83c98a	-0.257397
39	0x3d7edce2	0.06222237
40	0xbe576752	-0.21035507
41	0xbdd255ab	-0.10270246
42	0xbcc44364	-0.023957916
43	0x3c82d3cb	0.015970131
44	0x3dfb6ee3	0.12277009
45	0xbea0047e	-0.31253427
46	0xbe77a32f	-0.24183343
47	0xbe4583bf	-0.19288538
48	0xbe69d3be	-0.2283468
49	0xbea9a675	-0.3313481
50	0x3de4ba8e	0.11168395
51	0x3cc4dba1	0.024030508
52	0xbe0b889d	-0.13626333
53	0xbcb4f37a	-0.022088755
54	0x3ccdeeb6	0.02513824
55	0xbcf77a44	-0.030209668
56	0x3e160608	0.14650738
57	0x3e0db807	0.13839732
58	0x3c80a3ae	0.015703049
59	0x3d118e57	0.035536136
60	0x3d060534	0.032719806
61	0x3ce65689	0.028117435
62	0xbc9d95d8	-0.01923649
63	0x3d856601	0.06513596
64	0xbe2e72be	-0.17035958
65	0xbe796163	-0.24353556
66	0x3cb0db2d	0.021588886
67	0x3d03f87b	0.03221939
68	0xbe6039ff	-0.21897124
69	0xbe6fa1fa	-0.23401633
70	0xbb82d23c	-0.003992347
71	0xbe97f32a	-0.29677707
72	0xbe0d0467	-0.1377121
73	0x3d81644e	0.0631796
74	0xbe5225e0	-0.2052226
75	0xbe29ef1a	-0.16595116
76	0x3cf20fe1	0.029548587
77	0xbd2448d1	-0.040108506
78	0x3e39a9d5	0.18131192
79	0x3e57afce	0.21063158
80	0xbc9256cd	-0.017863655
81	0xbc1fa428	-0.009743728
82	0xbdeba01f	-0.1150515
83	0x3e283f9e	0.16430518
84	0x3d758858	0.05994448
85	0x3d0f8575	0.035039384
86	0xbe3f64b0	-0.18690753
87	0xbe7f1c76	-0.249132
88	0xbcf8a0e9	-0.030350165
89	0xbe8dd77d	-0.27703467
90	0x3d54c45f	0.051945087
91	0xbdc38134	-0.09546128
92	0x3ca1eb28	0.019765452
93	0xbcef72c8	-0.029229537
94	0xbcba2966	-0.022724818
95	0x3dced82a	0.10099824
96	0x3cf4c25f	0.02987784
97	0xbe89182a	-0.26776248
98	0x3ca575c9	0.020197766
99	0x3d26dbbe	0.040736906
100	0xbe3ed985	-0.18637665
101	0xbbb43995	-0.0055000284
102	0x3d385a69	0.045008097
103	0xbd67bf94	-0.056579188
104	0xbcf15433	-0.029459095
105	0x3c93bd4f	0.018034605
106	0x3e7bbaf4	0.24583036
107	0x3cf45778	0.029826865
108	0x3e709707	0.23495112
109	0xbbaa29b8	-0.0051929615
110	0xbe501b3e	-0.20322892
111	0x3ca043cd	0.01956358
112	0xbe481b27	-0.19541608
113	0xbe5e5eea	-0.21715894
114	0xbd20a91c	-0.039223775
115	0x3d8a1161	0.06741596
116	0x3dae9064	0.08523634
117	0xbe964127	-0.29346582
118	0x3d332c38	0.043743342
119	0x3d0f8f0c	0.03504853
120	0xbe967717	-0.29387733
121	0xbf0418cf	-0.51600355
122	0x3dd1b781	0.10240079
123	0x3e31653e	0.17323777
124	0xbd231a47	-0.039819982
125	0xbcedddff	-0.02903652
126	0xbe1442df	-0.14478634
127	0xbe92065f	-0.28520486

conv.weight f4 [128, 1, 1, 1]
0	0x3f54cedf	0.8312816
1	0xbf88f05f	-1.0698355
2	0xc0477f23	-3.1171348
3	0xbebb6799	-0.36602476
4	0x40395a7f	2.8961484
5	0x3f8b9f3a	1.0907967
6	0x3fa35505	1.2760321
7	0x3f3da4eb	0.7407977
8	0x3ee90956	0.45514935
9	0xbfa1d3be	-1.2642744
10	0xbf93fa6f	-1.1560801
11	0x3e296baa	0.16544977
12	0x3f0adbbd	0.54241544
13	0x3efd4d21	0.49472907
14	0x3e545eda	0.20739308
15	0x3f051220	0.5198078
16	0xc01ad737	-2.4193857
17	0x3ee21841	0.4415913
18	0x3ee31d4d	0.44358292
19	0xbfe357ce	-1.7761171
20	0xbc9ab7d9	-0.018886494
21	0xbf4cdc1a	-0.8002335
22	0xbf1a086c	-0.601691
23	0x3ee9b0f8	0.4564283
24	0xbf9e2dab	-1.2357687
25	0x4023e279	2.5606978
26	0x3f575a79	0.84122425
27	0x3f4d92a4	0.8030188
28	0x3f93c8a8	1.154561
29	0xbfed44b3	-1.853659
30	0xbfea036b	-1.8282293
31	0x3f1de4e7	0.616774
32	0xbedb747a	-0.42862302
33	0xbff69b16	-1.9266078
34	0xbfb29792	-1.3952506
35	0xbf0960ea	-0.53663504
36	0x3f8f0a47	1.1175011
37	0xbed480e8	-0.41504598
38	0x3fef7831	1.8708555
39	0xbf67cd40	-0.9054756
40	0x3f847dba	1.0350869
41	0x3ea2f255	0.3182551
42	0x3fb30095	1.3984553
43	0xbf816a96	-1.0110652
44	0xbfd2caba	-1.6468117
45	0x3f3e5443	0.74347323
46	0x3f9d72e5	1.2300688
47	0x3f15cba6	0.5851387
48	0x3efeecfb	0.49790177
49	0x400242ce	2.0353274
50	0xbe976439	-0.2956865
51	0xbfd9e91c	-1.7024264
52	0x3ec02fe0	0.37536526
53	0x3cb12573	0.021624302
54	0xbfe2b298	-1.7710752
55	0x3cae8093	0.021301543
56	0xbfe2d636	-1.7721622
57	0xbfdf1d27	-1.7430772
58	0xbf857915	-1.0427576
59	0xc019bbae	-2.40208
60	0xc0105dfd	-2.2557366
61	0xbfea43bb	-1.830192
62	0x3f74c7f1	0.95617586
63	0xc082f09c	-4.0918713
64	0x3f7c12ba	0.98466074
65	0x3f8f5456	1.1197612
66	0xbfcc1496	-1.5943782
67	0xc010fdda	-2.2654939
68	0x3f132cca	0.5749022
69	0x3ee01ff4	0.43774378
70	0xbbf83203	-0.0075743212
71	0x3f5b8ef2	0.8576499
72	0x3e63ecf0	0.22258353
73	0xbf45705f	-0.7712459
74	0x3fc4f329	1.5386707
75	0x3e79bd49	0.24388613
76	0xbf1e940e	-0.61944664
77	0x3d37acb9	0.044842456
78	0xbedc13e7	-0.42983934
79	0xbf11ef35	-0.57005626
80	0x3f3f7963	0.74794596
81	0xbb069e87	-0.0020541267
82	0x3e60f291	0.21967532
83	0xbffa15d1	-1.9537908
84	0xbf66c494	-0.90143704
85	0xc00e1c13	-2.2204635
86	0x3f922431	1.1417295
87	0x3ed2bc01	0.4115906
88	0x40041d07	2.0642717
89	0x3f1280b6	0.5722765
90	0xc056cba8	-3.3561802
91	0x3f4fc340	0.811573
92	0xbfaeac8e	-1.364641
93	0x40031ed4	2.0487566
94	0x3f8e3445	1.1109701
95	0xbfb03e8e	-1.376909
96	0xbffbfa34	-1.9685731
97	0x3f48225d	0.78177434
98	0xbf49febb	-0.7890431
99	0xbe9b00e0	-0.30274105
100	0x3f7f0e6e	0.9963139
101	0xbd67a606	-0.056554817
102	0xc03d09d6	-2.9537253
103	0x3f03583f	0.5130653
104	0x3fc8ff07	1.5702828
105	0xbfb18e25	-1.3871504
106	0xc030a825	-2.7602627
107	0xbfff5800	-1.994873
108	0xbf16b141	-0.5886422
109	0xbc35f841	-0.011106552
110	0x3f23c462	0.6397153
111	0xbfa5d094	-1.2954278
112	0x3e83759e	0.25675672
113	0x3f4ef292	0.8083888
114	0x4010eb23	2.2643516
115	0xbf4e02a6	-0.8047279
116	0xbc292551	-0.010323838
117	0x40011b60	2.0172958
118	0xbf49bf11	-0.7880717
119	0xc01811fd	-2.376098
120	0x3f82bd6d	1.0214058
121	0x400bf173	2.186612
122	0xbfa41472	-1.281874
123	0xc001a461	-2.025658
124	0x401f9e3d	2.494033
125	0x3fd88d4a	1.6918118
126	0x3f5e5984	0.8685534
127	0x3f6d7b55	0.92766315
