AI/Image-Generation/PGGAN/model/32x32/discriminator_model/fromrgb_layers_0.pt (torch, 2187 bytes, 2 tensors)

bias f4 [128]
00000000: 4d28 cc3d f69c a0bd ea5f 6abd 4bb8 513c
00000010: 1263 053d e1ae 9f3c fdef dbbd 7970 28be
00000020: 77a4 4ebe 19d2 9ebd a474 95bd 0dd6 febd
00000030: 6f3b c6bd a45b 723c 7fba 8ebd 0002 e2bd
00000040: b751 62be c81d bbbd 65b7 913c e082 07bd
00000050: 6f97 f83b fbb4 1fbd b21b d7ba 8681 633c
00000060: fb54 4ebd d9d9 df3c 8ccb c1bd 85ea 17be
00000070: 61ea 403e ca18 a03d db40 e6bb 0411 c1bd
00000080: 1977 eb3b 638c a83c 7338 e43d fbd1 23be
00000090: d528 04be fdf0 4f3e bd6e 21bd 1132 b0bd
000000a0: 0c40 473d 2a46 93bd 1dcf 5ebb 852f 03bd
000000b0: bac3 1e3c aea3 ea3c 895f 7cbe cb6f 40bd
000000c0: ca18 7abe 925c 2cbe 9ddb 10be 6ca1 03be
000000d0: 0926 053d df41 3f3e 48bc 13bd 36b4 8b3c
000000e0: 2d64 d2bd 307b 763b 15df d6bd f67d 1cbe
000000f0: 1773 f53d 0af0 5e3d 814c b3bd 421a 4fbe
00000100: 9fff cebd f3d0 a1bc 57cc d1bd 2682 ba3d
00000110: 0adb 873c 1b41 4d3c 6da4 133d 32ca 713c
00000120: 4797 f4bd 975d e4bd dc39 d83d 14b0 413b
00000130: 712c b939 43ba bf3b 72a6 233e 8952 023d
00000140: 139f 123d 1a85 68be 6444 9e3c 8d19 b1bd
00000150: ba3b 11bd f084 f8bd a588 b03d 059e 103e
00000160: 092e 05be 648b 893c 3386 413e 7443 413c
00000170: 21f3 06bd b2b0 03be c904 5abd 6284 3e3c
00000180: 0adb a6bd aeb0 5cbc a145 de3d 68b4 85bc
00000190: c504 4f3e 132e debb 6bd9 afbd bb60 683c
000001a0: d4b8 8dbb 7cfc f7bd 4f81 8ebc 94a5 253e
000001b0: c028 0b3c f674 e2bd 7448 2b3e cf11 33be
000001c0: 0cc7 8a3d 6b7a 32ba 745e bcbc ad88 00bd
000001d0: 26dc 4bbe c1c4 1a3c 4c5d a0ba d4a7 8bbd
000001e0: 12a0 cabd 5dcf 113e 32fd 89bd c052 febd
000001f0: 3e11 1a3c db51 82bd ea27 393c 4ef0 9b3c
0.09968624 -0.07842438 -0.057220377 0.0128002865 0.032565184 0.019492568 -0.107391335 -0.16449155
-0.20179926 -0.07754917 -0.07297638 -0.12443171 -0.09679305 0.014792357 -0.06969165 -0.11035538
-0.22101484 -0.0913654 0.017787645 -0.033083797 0.0075864117 -0.038990956 -0.0016411452 0.013885861
-0.050374012 0.027325558 -0.094626516 -0.14835556 0.18839408 0.07817228 -0.0070267743 -0.094270736
0.0071858284 0.020574754 0.11143579 -0.1599807 -0.12906201 0.20306773 -0.03941225 -0.086032994
0.048645064 -0.07191117 -0.003399796 -0.03202774 0.00969022 0.028642502 -0.24645819 -0.046981614
-0.24423519 -0.16832188 -0.14146276 -0.12854546 0.032506976 0.18677472 -0.03606823 0.017053705
-0.10273013 0.0037610047 -0.10491768 -0.15282425 0.11984842 0.054428138 -0.08754826 -0.2022486
-0.101073496 -0.019752955 -0.10244053 0.09106855 0.016583938 0.012527729 0.03604548 0.01475768
-0.11942916 -0.11150663 0.10557911 0.0029554414 0.0003531906 0.0058510615 0.15981463 0.031816993
0.035796236 -0.22707024 0.01931972 -0.086474515 -0.03545735 -0.12134731 0.08619813 0.1412278
-0.13005842 0.0167901 0.18898849 0.011795867 -0.03294671 -0.12860373 -0.05322722 0.011628242
-0.08147247 -0.013469858 0.108531244 -0.016321376 0.20216663 -0.006780395 -0.08586391 0.014183219
-0.0043250117 -0.121087044 -0.017395644 0.16176444 0.008493602 -0.11057465 0.16726857 -0.17487262
0.067762464 -0.0006808403 -0.022994258 -0.031380344 -0.19908199 0.009446324 -0.0012234836 -0.0681912
-0.09893812 0.14239259 -0.06737746 -0.12418127 0.009403525 -0.06363269 0.01130102 0.019035485

conv.weight f4 [128, 1, 1, 1]
00000000: ecd1 2cbf 214c 0040 6a89 02bd 97e7 e9bf
00000010: f2c5 65bf bab9 a43e 8c3d 083e cd2f 7b3e
00000020: 16a1 ba3f 4714 bd3f a2ca b73f 64be 4f3f
00000030: ae2a be3f 0bff d2bf ed3b c63f d850 4a3f
00000040: 683a a53e 2456 8b3e 6e00 11c0 61c3 e33d
00000050: 9443 133f e6c3 883f 2322 15bf b3ca c8bf
00000060: 4d69 1540 0d47 c6bf 6e65 123e f365 4b3f
00000070: 6207 2cbf fcdc ae3e e790 e0bf 3579 383f
00000080: 7391 06c0 e4e4 dd3f 5131 67bf cd96 bd3f
00000090: 1727 c53e ea92 703d 425d 963f da99 2e3f
000000a0: 7e77 81c0 f9b3 f53f 35cc afbf 1ada f93e
000000b0: b272 07c0 1e2e 76c0 ce49 8e3f fc46 9c3e
000000c0: b201 0a3f 16b1 323f ef10 123f 31bd ad3f
000000d0: bdd5 62c0 a6ae 20bf ef62 cdbd 3ecc 43c0
000000e0: 5875 113f 707d fe3f a35a 123e 7fc3 9e3f
000000f0: d441 6cbf 05b0 35bf 63df 4c3f 9b84 3f3f
00000100: 493c 803e 927e 58be 8cc0 3040 66ff 88bf
00000110: d7ac 09c0 9e61 0fc0 a3da 4dc0 64c6 d5bf
00000120: 4308 243f 1b61 fbbd 57d3 23bf 2cc2 83bf
00000130: 9199 d0bf ae56 c5bf 41eb aabd 7ae5 cabf
00000140: 9ee8 34c0 0801 233f b8e3 07c0 9e5e 1c3e
00000150: 1597 87be 63fe a33f bdcd 69bf a3c9 0bbf
00000160: d7dc 0c3f 0f63 f1be 449e edbf 28a3 1fc0
00000170: 76d7 683e e7b7 173f 540b c13f 69a7 57bf
00000180: 105f fc3f 2d82 bb3e 60d8 c7bc 4f82 71bd
00000190: ea2c c4bf b019 0dc0 9d52 af3f 2aba c2bf
000001a0: e03c 0ec0 4549 823e a678 5d3f c443 06bf
000001b0: 864a 15c0 83e0 fc3f 9964 19bf 90b6 c63f
000001c0: 126e 593e fad3 12c0 884f c0bd e931 aebd
000001d0: 4c86 903f a2ea dabf e01f e6bf 41a8 6d3f
000001e0: b83b 243f 2741 b0bf 921b 153f 0289 a03f
000001f0: 6ec4 afbf 3fbc 3b40 b097 02c0 80a5 8d3f
-0.67507815 2.0046465 -0.03186933 -1.8273801 -0.89755166 0.32172948 0.13304728 0.24529953
1.458041 1.4771813 1.4358714 0.8114989 1.4856775 -1.6484083 1.5487038 0.7902961
0.32271123 0.27214158 -2.2656512 0.1112125 0.5752499 1.0684783 -0.58255213 -1.5686859
2.334552 -1.5490433 0.14296505 0.7945244 -0.67198765 0.34152973 -1.7544221 0.7205995
-2.1026275 1.7335477 -0.90309626 1.4811646 0.38506386 0.05873386 1.174721 0.6820351
-4.0458364 1.9195548 -1.3734194 0.4879921 -2.1163754 -3.8465648 1.1116273 0.30522907
0.53908837 0.6980146 0.5705709 1.3573362 -3.5442955 -0.6276649 -0.10028636 -3.059341
0.5681968 1.988203 0.14292388 1.2403411 -0.92287946 -0.7097171 0.8002836 0.74811715
0.25045994 -0.21142033 2.7617521 -1.0702941 -2.1511743 -2.240333 -3.2164695 -1.6701169
0.64075106 -0.12274381 -0.63994354 -1.0293632 -1.6296865 -1.5417078 -0.08345652 -1.5851281
-2.8266978 0.6367345 -2.1232738 0.15270469 -0.26482454 1.2812008 -0.91329557 -0.5460455
0.55024475 -0.47145888 -1.8563924 -2.4943333 0.22738442 0.5926499 1.5081582 -0.8423982
1.9716511 0.36622754 -0.024395168 -0.058962163 -1.5326207 -2.2046928 1.3697087 -1.5213063
-2.2224655 0.25446525 0.8651222 -0.5244715 -2.3326735 1.9756016 -0.59919125 1.5524464
0.21233395 -2.294188 -0.093901694 -0.08505613 1.1290984 -1.7102854 -1.7978477 0.9283486
0.64153624 -1.3769883 0.58245194 1.2541811 -1.373182 2.9333646 -2.0405083 1.1066132
