AI/Image-Generation/PGGAN/model/64x64/generator_model/prog_blocks_4.pt (torch, 444739 bytes, 4 tensors)

conv1.bias f4 [64]
0.059665304 0.059665233 -0.059665293 -0.0596653 -0.0596653 0.059665307 -0.0596653 -0.0596653
-0.05966472 -0.059665304 -0.0596653 -0.059665047 0.059665278 -0.0596653 0.059665274 0.0596653
0.059665307 0.059665307 -0.059665296 0.059665304 0.059665296 0.0596653 -0.059665307 -0.059665006
-0.059665307 0.059665307 -0.059665307 -0.0596653 0.059665304 0.05966528 0.059665293 -0.0596653
-0.059665285 0.059664972 0.059664793 0.0596653 -0.05966529 0.059665307 -0.059665263 0.059665293
-0.0596653 -0.059665285 0.0596653 -0.059665244 -0.059665233 0.059665296 0.059665207 0.059665304
0.0596653 0.05966529 -0.059665307 -0.059665304 -0.059665278 -0.059665296 -0.0596653 0.05966529
-0.059665296 0.059665296 0.059664655 0.059665274 -0.059665296 0.059665293 -0.059665296 0.059665307
00000000: 9b63 743d 8863 743d 9863 74bd 9a63 74bd
00000010: 9a63 74bd 9c63 743d 9a63 74bd 9a63 74bd
00000020: fe62 74bd 9b63 74bd 9a63 74bd 5663 74bd
00000030: 9463 743d 9a63 74bd 9363 743d 9a63 743d
00000040: 9c63 743d 9c63 743d 9963 74bd 9b63 743d
00000050: 9963 743d 9a63 743d 9c63 74bd 4b63 74bd
00000060: 9c63 74bd 9c63 743d 9c63 74bd 9a63 74bd
00000070: 9b63 743d 9563 743d 9863 743d 9a63 74bd
00000080: 9663 74bd 4263 743d 1263 743d 9a63 743d
00000090: 9763 74bd 9c63 743d 9063 74bd 9863 743d
000000a0: 9a63 74bd 9663 74bd 9a63 743d 8b63 74bd
000000b0: 8863 74bd 9963 743d 8163 743d 9b63 743d
000000c0: 9a63 743d 9763 743d 9c63 74bd 9b63 74bd
000000d0: 9463 74bd 9963 74bd 9a63 74bd 9763 743d
000000e0: 9963 74bd 9963 743d ed62 743d 9363 743d
000000f0: 9963 74bd 9863 743d 9963 74bd 9c63 743d

conv1.conv.weight f4 [64, 128, 3, 3]
-0.88314235 1.2225193 -0.8528166 -1.326976 -0.5656286 -0.19410157 2.691795 -0.98970926
-1.2199086 0.4805164 1.4501069 1.262839 -0.90655124 1.1216736 -0.45428607 -0.138594
-2.9792988 0.10135185 -0.57988137 -0.9378614 0.48622918 -2.7022288 0.30265844 1.8518832
-0.2423032 0.573013 -0.47218087 -0.9154569 0.9955977 -0.28089502 -0.70247483 -1.7548884
1.0193368 1.3387891 0.9346229 1.2297052 0.6240574 0.5101065 -0.83563936 0.5639752
-0.376241 -1.9174461 -2.5361433 -0.32633275 -0.28975502 -0.06144856 0.2814028 -0.16036616
0.13132574 1.1919241 -1.7164505 0.6051198 -1.2030594 -0.6865166 -0.63499916 -0.9359162
0.2859729 -1.3375369 1.0524065 -0.40319484 -1.9233313 -1.9067683 0.7472954 -0.20336996
0.40935302 0.45740175 -0.33588094 -1.6522427 -0.5396111 1.612275 -0.73270583 0.021218244
0.31713662 1.4051597 0.63356674 -0.48350996 0.7857636 1.1622174 -0.11044157 0.4119525
-0.01866843 -0.24520469 1.3134772 -1.167266 0.050516278 -1.1359643 -0.55084497 0.8440537
-0.28489998 -1.2867624 0.6008326 0.5830135 -1.3400832 0.48685554 0.113976724 -0.6530166
0.36056015 1.2261035 0.4081257 0.80652726 -0.34678328 -0.25772077 -0.6285744 -0.77456695
-1.3831763 0.7911764 -1.1952763 0.15585253 -1.3431194 0.9383478 -0.793129 -0.31636193
-1.3070838 -1.2895521 0.17201133 0.46528703 -0.38165575 0.73495525 0.33253762 -2.3073614
-0.7099162 -0.56258744 -1.507643 -1.6108806 -0.97367567 2.4950845 -0.5639554 -0.30109638
0.5073983 0.2572444 -0.7315623 0.029563462 0.008388758 1.3190775 -1.0225403 -0.43799296
0.2974646 0.32391754 2.2705908 0.46603242 -1.9057455 0.32079715 -0.6312524 0.46234342
-1.3905061 0.13606624 1.2168726 -1.0943146 -1.346832 1.2443281 0.2600092 -2.1637156
0.92325985 -1.7383531 -2.1257002 0.808408 0.09936133 0.4433545 0.3292854 -0.20945528
-0.08638268 -0.25803444 0.9445363 0.037447166 -0.2813994 1.8899868 0.096500345 -1.7259768
0.14166948 0.88660413 -0.58718795 0.16153944 -0.15976207 0.383187 -0.277127 -0.37028
0.6966812 -0.03844871 0.43694496 -1.6500236 -1.2373912 -0.72785985 -1.2251765 0.05422464
-1.1608149 0.73391855 -0.4298028 -1.5695742 -0.97311944 -0.57781404 -0.12980752 0.53878355
-0.0539555 -0.23692174 1.5146548 1.0862186 1.8410412 -0.16801 0.38171872 -0.3005623
-1.0803195 -2.450748 1.5760717 -0.8004019 0.21196564 -0.76045316 0.14670882 0.51765007
-1.0019993 1.4651481 -1.3096577 0.5376507 0.5077547 2.187579 0.08690791 0.8660118
1.297008 -1.051497 0.51171136 -1.2064302 -1.8111444 0.8749592 -0.6394504 -0.7407612
0.020253565 2.3942697 -1.2373278 1.1473256 0.3017257 0.29985213 0.53673726 -0.058946878
0.5930695 -0.90953064 1.1131355 0.24260734 0.8113655 0.5863642 0.065387 -0.33964372
-0.95525795 0.4954441 -1.2291353 -0.79275286 1.0000913 -0.6608373 2.0131986 -0.023238305
1.1904305 -1.3563484 -1.6716853 0.97054243 -0.6867681 -0.25763538 -0.18501371 0.53191954
00000000: 9e15 62bf 837b 9c3f 3052 5abf 59da a9bf
00000010: 09cd 10bf 90c2 46be 5f46 2c40 965d 7dbf
00000020: f725 9cbf 3f06 f63e 1a9d b93f b5a4 a13f
00000030: be13 68bf 0093 8f3f 2f98 e8be 96eb 0dbe
00000040: d5ac 3ec0 8f91 cf3d 1b73 14bf af17 70bf
00000050: 08f3 f83e 51f1 2cc0 0cf6 9a3e 820a ed3f
00000060: 541e 78be fbb0 123f b1c1 f1be 625b 6abf
00000070: 7edf 7e3f 79d1 8fbe 64d5 33bf 2fa0 e0bf
00000080: a179 823f 715d ab3f 7243 6f3f fb66 9d3f
00000090: 3ac2 1f3f 5796 023f 76ec 55bf ae60 103f
000000a0: a9a2 c0be e06e f5bf 2c50 22c0 1615 a7be
000000b0: c55a 94be 7cb1 7bbd 0714 903e 0737 24be
000000c0: 417a 063e f890 983f a6b4 dbbf 22e9 1a3f
000000d0: dafd 99bf 8dbf 2fbf 4e8f 22bf 3498 6fbf
000000e0: 0a6b 923e 6934 abbf 42b5 863f 8e6f cebe
000000f0: b82f f6bf fc10 f4bf c04e 3f3f 3740 50be
00000100: b896 d13e 9030 ea3e 96f8 abbe b07c d3bf
00000110: f423 0abf 075f ce3f 9c92 3bbf e2d1 ad3c
00000120: bb5f a23e 46dc b33f 6e31 223f 9e8e f7be
00000130: ce27 493f 8ac3 943f 312f e2bd 70eb d23e
00000140: 89ee 98bc f016 7bbe 0520 a83f f968 95bf
00000150: 28ea 4e3d 4767 91bf 2d04 0dbf e713 583f
00000160: 69de 91be a1b4 a4bf 2ad0 193f 5f40 153f
00000170: d987 abbf 2145 f93e a16c e93d 192c 27bf
00000180: 579b b83e f6f0 9c3f daf5 d03e 9278 4e3f
00000190: 948d b1be faf3 83be 40ea 20bf 054a 46bf
000001a0: ec0b b1bf 898a 4a3f d0fe 98bf ce97 1f3e
000001b0: 56eb abbf 9037 703f 810a 4bbf 31fa a1be
000001c0: 864e a7bf 0b10 a5bf bd23 303e 1a3a ee3e
000001d0: 6268 c3be 0726 3c3f 5f42 aa3e cfab 13c0
000001e0: 11bd 35bf bb05 10bf 72fa c0bf 5631 cebf
000001f0: cf42 79bf 77af 1f40 625f 10bf 4e29 9abe
00000200: dbe4 013f 8ab5 833e ab47 3bbf 132f f23c
00000210: 0071 093c 88d7 a83f 9ae2 82bf 9d40 e0be
00000220: 484d 983e 85d8 a53e 5c51 1140 cd9b ee3e
00000230: 78ef f3bf 863f a43e c299 21bf 47b8 ec3e
00000240: 1bfc b1bf f354 0b3e 7bc2 9b3f 8012 8cbf
00000250: fe64 acbf 2546 9f3f ed1f 853e 517a 0ac0
00000260: c25a 6c3f 5b82 debf 790b 08c0 d4f3 4e3f
00000270: f47d cb3d 5cff e23e 1998 a83e 727b 56be
00000280: 67e9 b0bd 171d 84be 22cd 713f 3362 193d
00000290: 9513 90be 16eb f13f f9a1 c53d cfec dcbf
000002a0: ce11 113e 7df8 623f f351 16bf 986a 253e
000002b0: ab98 23be 1631 c43e 97e3 8dbe 5795 bdbe
000002c0: b359 323f 657c 1dbd 40b7 df3e f933 d3bf
000002d0: d662 9ebf 0655 3abf 95d2 9cbf a81a 5e3d
000002e0: 9595 94bf 16e2 3b3f 1d0f dcbe cfe7 c8bf
000002f0: 5b1e 79bf 9feb 13bf 43ec 04be b8ed 093f
00000300: 7100 5dbd 9d9b 72be 35e0 c13f 3609 8b3f
00000310: 3da7 eb3f d00a 2cbe a370 c33e 4de3 99be
00000320: e947 8abf 0ed9 1cc0 b8bc c93f 24e7 4cbf
00000330: 850d 593e 0fad 42bf d63a 163e b784 043f
00000340: 8341 80bf f989 bb3f dda2 a7bf 7aa3 093f
00000350: 36fc 013f 4b01 0c40 c6fc b13d f3b2 5d3f
00000360: 5c04 a63f 7497 86bf 84ff 023f 4e6c 9abf
00000370: 94d3 e7bf 53fd 5f3f 05b3 23bf 87a2 3dbf
00000380: ceea a53c b73b 1940 c260 9ebf 91db 923f
00000390: ca7b 9a3e 3886 993e 9d67 093f 4872 71bd
000003a0: 67d3 173f 00d7 68bf 397b 8e3f 0f6e 783e
000003b0: a6b5 4f3f f71b 163f 9fe9 853d c8e5 adbe
000003c0: c98b 74bf d9aa fd3e 4e54 9dbf daf1 4abf
000003d0: fe02 803f a22c 29bf 3fd8 0040 425e bebc
000003e0: 0760 983f d39c adbf c9f9 d5bf 7875 783f
000003f0: 09d0 2fbf c9e8 83be 3c74 3dbe e12b 083f

conv2.bias f4 [64]
0.059665304 0.059665304 0.059665304 0.059665307 0.05966521 -0.0596653 0.059664994 -0.059665293
0.05966529 0.059665304 -0.059665296 0.059665296 -0.059665307 0.0596653 -0.059665296 0.05966528
0.0596653 0.059665285 0.059665296 0.059665296 -0.0596653 -0.059665296 0.059665307 0.059665278
0.059665285 -0.059665296 0.059665285 0.0596653 -0.0596653 0.05966523 -0.059665304 0.059665304
-0.05966518 0.05966525 0.059665285 -0.0596653 0.059665304 0.05966528 -0.059665285 -0.059665304
0.059665047 -0.059665304 0.059665304 -0.059665293 0.05966531 0.0596653 -0.059665274 0.059665304
-0.059665304 -0.0596653 0.059665162 -0.05966529 0.059665304 -0.059665296 0.059665304 -0.059665304
-0.0596653 -0.059665296 -0.0596653 -0.059665285 -0.059665285 0.059665307 0.059665304 -0.0596653
00000000: 9b63 743d 9b63 743d 9b63 743d 9c63 743d
00000010: 8263 743d 9a63 74bd 4863 743d 9863 74bd
00000020: 9763 743d 9b63 743d 9963 74bd 9963 743d
00000030: 9c63 74bd 9a63 743d 9963 74bd 9563 743d
00000040: 9a63 743d 9663 743d 9963 743d 9963 743d
00000050: 9a63 74bd 9963 74bd 9c63 743d 9463 743d
00000060: 9663 743d 9963 74bd 9663 743d 9a63 743d
00000070: 9a63 74bd 8763 743d 9b63 74bd 9b63 743d
00000080: 7a63 74bd 8d63 743d 9663 743d 9a63 74bd
00000090: 9b63 743d 9563 743d 9663 74bd 9b63 74bd
000000a0: 5663 743d 9b63 74bd 9b63 743d 9863 74bd
000000b0: 9d63 743d 9a63 743d 9363 74bd 9b63 743d
000000c0: 9b63 74bd 9a63 74bd 7563 743d 9763 74bd
000000d0: 9b63 743d 9963 74bd 9b63 743d 9b63 74bd
000000e0: 9a63 74bd 9963 74bd 9a63 74bd 9663 74bd
000000f0: 9663 74bd 9c63 743d 9b63 743d 9a63 74bd

conv2.conv.weight f4 [64, 64, 3, 3]
0.90533555 0.18191582 1.7862569 0.056122612 1.5630125 1.7132108 0.2600614 -0.8996507
0.11812057 -0.43729776 0.6669673 -1.8334343 -2.3516576 -1.0981009 -0.10860569 -0.5785909
-0.71641016 0.13268249 -0.563271 -1.8307545 0.7496541 -0.5990797 1.8829671 -0.4851192
-1.0190085 -1.7122769 0.2416539 -0.90141946 0.7428029 -1.389596 -0.0681672 1.5962163
0.12855864 1.4834377 -1.3881826 -0.31364033 -0.74665093 -0.2306412 -2.1243277 0.08092105
-0.86924493 -0.46930948 -0.24382214 0.1850632 0.42126226 -0.13660687 -1.8051022 2.450846
-0.2071065 0.20330292 0.45178348 -0.6362576 0.11298496 -1.1966232 -0.6267711 -1.3847903
-1.137906 0.22625695 0.47539887 1.7183831 -0.88623446 -0.024458608 0.4802703 0.90697515
1.0071878 -1.1551185 -0.64911634 0.37060857 0.7750936 -0.7505368 3.1808672 0.38327548
-0.45913032 -0.6935892 -0.11465426 0.16976385 1.2694643 0.46570432 0.3684918 -0.6633808
-0.70940757 0.14960633 2.5098999 -1.0933263 -0.73052186 -0.17152022 -1.431184 -0.57472926
0.65931106 -0.83630776 -1.1889217 0.45196486 1.6322833 0.69126874 1.406215 -0.025348635
0.813136 0.72135764 -1.4915111 -0.88138366 -0.21955013 -1.3855485 1.1062404 0.050682966
-0.79940873 0.6120627 -0.61617297 -1.4387999 -0.440182 0.35237744 0.23341393 0.24701843
-0.07091123 -0.7767507 -1.9337468 0.08848483 0.5122703 -0.1718406 0.8940576 2.1425767
-0.9489041 0.1362061 -0.68718714 -0.054208986 -1.0768934 2.2373323 -0.3564951 -1.3099179
-0.4867024 -0.0913839 1.165567 2.436131 0.75536114 -0.33772025 0.6944014 0.9355887
-0.2090718 -0.22439182 2.308968 0.18162832 2.3948705 -0.06888658 -0.8245713 -0.019135168
1.1637143 0.9010258 0.2372331 1.3075088 2.7811308 0.75969887 0.5242777 -0.2497076
-0.06400717 1.0552583 -0.11753091 0.39806503 -0.20005427 -0.31239164 -0.34574577 0.35305497
-1.377579 -0.324292 -0.93116385 -1.244492 -0.8561458 0.018524444 -0.6360948 0.60485846
-1.4440687 0.72511244 0.48400107 -0.6879805 1.6185132 -0.10482061 1.5171987 1.9460006
-0.21131171 1.4651685 -0.84619683 -0.13019863 -0.34127492 -0.15357098 -0.3751858 -0.23263745
-0.580604 0.08631286 1.0258665 0.7043985 0.29712504 1.5752184 1.2259017 -1.1545975
1.1309133 -1.3528593 -1.9476928 0.76875514 0.18788949 0.9989473 0.84598565 -1.2917291
-0.4483315 -0.9374688 -1.6765196 0.7480096 -0.07138469 -0.25332865 0.4333204 1.0283195
0.22978142 -0.9002418 -0.5266469 -1.0726686 -0.30839518 1.6398106 -0.72048384 0.1894344
1.1433524 0.50471026 0.2559887 -0.15030698 0.81028616 0.94495213 1.5013156 0.5116451
0.657436 0.08863208 -0.16047421 1.2346283 0.36523524 0.102477066 -0.41879293 0.5192341
2.0114772 -1.3290681 0.96553665 -0.84513074 -0.047948625 0.051218305 0.74011034 1.1001793
-1.2838081 0.009691951 -0.24199595 -1.2943053 0.1638161 -1.4066223 0.27780265 -0.593203
-1.5896505 1.3438588 1.2648964 -0.44940338 -1.4774398 -0.8545281 1.3729751 -0.24736352
00000000: 12c4 673f 2448 3a3e 11a4 e43f d3e0 653d
00000010: cb10 c83f 7e4a db3f c526 853e 824f 66bf
00000020: 33e9 f13d 7ee5 dfbe 5ebe 2a3f faad eabf
00000030: 8f81 16c0 928e 8cbf a96c debd 891e 14bf
00000040: a866 37bf ebdd 073e 8732 10bf 2a56 eabf
00000050: 55e9 3f3f 4a5d 19bf 1105 f13f 8b61 f8be
00000060: df6e 82bf e42b dbbf 1f74 773e 6dc3 66bf
00000070: 5528 3e3f 48de b1bf 3f9b 8bbd d150 cc3f
00000080: e0a4 033e 49e1 bd3f f8af b1bf 7795 a0be
00000090: 8424 3fbf 352d 6cbe fcf4 07c0 efb9 a53d
000000a0: d686 5ebf 5549 f0be 83ac 79be 3581 3d3e
000000b0: b0af d73e ace2 0bbe 970d e7bf a9da 1c40
000000c0: ba13 54be a42e 503e 2a50 e73e c7e1 22bf
000000d0: a964 e73d f32a 99bf 1274 20bf cf40 b1bf
000000e0: e7a6 91bf e7af 673e 7b67 f33e faf3 db3f
000000f0: 43e0 62bf 6b5d c8bc fde5 f53e 862f 683f
00000100: 88eb 803f ecda 93bf 7d2c 26bf 68c0 bd3e
00000110: 896c 463f 2e23 40bf 5493 4b40 af3c c43e
00000120: 2113 ebbe 108f 31bf dacf eabd 93d6 2d3e
00000130: ce7d a23f cc70 ee3e f5aa bc3e 53d3 29bf
00000140: bc9b 35bf 6732 193e 33a2 2040 1ef2 8bbf
00000150: 7b03 3bbf ffa2 2fbe 0a31 b7bf 7521 13bf
00000160: 9cc8 283f 4418 56bf 962e 98bf f067 e73e
00000170: a9ee d03f fdf6 303f dafe b33f f1a7 cfbc
00000180: ae29 503f e5aa 383f d6e9 bebf 5ca2 61bf
00000190: c0d1 60be a759 b1bf 4999 8d3f f198 4f3d
000001a0: 0da6 4cbf 24b0 1c3f 83bd 1dbf 982a b8bf
000001b0: 895f e1be d16a b43e 1004 6f3e 66f2 7c3e
000001c0: e839 91bd 22d9 46bf 0485 f7bf 8937 b53d
000001d0: 2524 033f fbf6 2fbe f5e0 643f fa1f 0940
000001e0: 61eb 72bf 9d79 0b3e 7feb 2fbf 3e0a 5ebd
000001f0: a5d7 89bf 7430 0f40 8786 b6be 64ab a7bf
00000200: 0f31 f9be 7b27 bbbd 4d31 953f 92e9 1b40
00000210: 595f 413f abe9 acbe 4ac4 313f be82 6f3f
00000220: eb16 56be f8c6 65be 22c6 1340 c6fc 393e
00000230: 8f45 1940 6814 8dbd 1b17 53bf 5bc1 9cbc
00000240: 97f4 943f a0a9 663f 3ced 723e 735c a73f
00000250: 0cfe 3140 a07b 423f 1037 063f 59b3 7fbe
00000260: 3116 83bd b412 873f 0cb4 f0bd 2ecf cb3e
00000270: 07db 4cbe ccf1 9fbe 9705 b1be 9fc3 b43e
00000280: 8254 b0bf 9a09 a6be c160 6ebf 844b 9fbf
00000290: 5f2c 5bbf 93c0 973c 1cd7 22bf 01d8 1a3f
000002a0: 3ed7 b8bf f8a0 393f fdce f73e 7d1f 30bf
000002b0: 712b cf3f 30ac d6bd 9133 c23f 8c16 f93f
000002c0: 1962 58be a48a bb3f 5ba0 58bf ca52 05be
000002d0: 96bb aebe b641 1dbe 5a18 c0be 8338 6ebe
000002e0: 77a2 14bf ccc4 b03d 984f 833f 7653 343f
000002f0: c620 983e c2a0 c93f 59ea 9c3f dac9 93bf
00000300: c4c1 903f 7e2a adbf ff4d f9bf 23cd 443f
00000310: 1a66 403e 03bb 7f3f 8492 583f 6157 a5bf
00000320: b58b e5be f5fd 6fbf 3298 d6bf 8f7d 3f3f
00000330: 2332 92bd 4bb4 81be 2cdc dd3e f99f 833f
00000340: d24b 6b3e 3f76 66bf 55d2 06bf 344d 89bf
00000350: f9e5 9dbe 50e5 d13f a171 38bf 17fb 413e
00000360: 5f59 923f b134 013f f310 833e 13ea 19be
00000370: ea6e 4f3f 62e8 713f 1c2b c03f 2cfb 023f
00000380: ba4d 283f bc84 b53d 5a53 24be 4d08 9e3f
00000390: 1d00 bb3e 7fdf d13d 076c d6be 87ec 043f
000003a0: 0bbc 0040 e71e aabf 692d 773f 7d5a 58bf
000003b0: c765 44bd 49ca 513d df77 3d3f add2 8c3f
000003c0: d353 a4bf fdca 1e3c c9cd 77be ccab a5bf
000003d0: 68bf 273e 330c b4bf 263c 8e3e 27dc 17bf
000003e0: ab79 cbbf 9103 ac3f 20e8 a13f 3318 e6be
000003f0: bf1c bdbf 5bc2 5abf a6bd af3f dd4c 7dbe
