AI/Image-Generation/PGGAN/model/64x64/generator_model/torgb_layers_0.pt (torch, 1667 bytes, 1 tensors)

conv.weight f4 [1, 128, 1, 1]
00000000: 1eb4 a83d 4a24 7c3e 048e d03e 477b b4bf
00000010: f526 a73f 9f02 bbbf 090d f1bf c65b e2bf
00000020: e335 e33e 07fc 1bbf 8e14 d83e 01d6 573e
00000030: cd8e 943f 2b27 fdbe 7259 653e d5ff d43e
00000040: 852c eebf 4eab 8fbb ad4a 0a3e 040e b43d
00000050: 7561 6f3d fd49 b33e bbc2 fe3f 8d2e 6abe
00000060: 8dd1 1ebf 184a 64be bba8 583f 51f1 a1bf
00000070: d4a3 233f 10ce 7abf bc06 53bf a47d 433f
00000080: 8fcc 053e 4130 1c3f e0c5 453d 5a98 9b3f
00000090: 3107 4e3e 24d8 18bf 9a4e 143d b49a 133f
000000a0: 673c 3ebf 60f9 32be 8a01 843e 24ac 7b3f
000000b0: c227 e1be 654b e93b be7d 7cbc 076d 113e
000000c0: 2987 39be a073 b63e aa99 a6bf 771a 11c0
000000d0: c57f c2bc 7391 fdbe e919 10bf a27d 3f3f
000000e0: 4866 c4bf d538 9e3d 7486 27be f643 c53e
000000f0: f6f8 a43e 9bf2 0640 1f6e 093f cfdc 24bf
00000100: 2127 0340 6026 a83e 89ea 273f 3f55 1e3f
00000110: 93c0 47be cbec d2bf b85e 9cbe f5e2 c13d
00000120: abe1 023e 3b88 55bf 277f 0b3f 6617 6fbe
00000130: 6c27 fa3e bcfc 3ebe 45b9 7fbe d6a7 6fbf
00000140: 8cde f63e 33ff 97bd c44d a43e b62f e33e
00000150: d640 cd3e b2fe 243e 990e d23e ea60 283e
00000160: 2e44 883f 2772 d03f 5fba cdbe f17c 3a40
00000170: b0fe dd3f daa8 a03f c45a bebe f2fe 963b
00000180: 3a6a 02be f46c 5e3e 418a dcbe d169 d7be
00000190: 9652 6b3e 3891 243e 1617 bbbe 1b29 7a39
000001a0: ffe6 44bd 495c 493f 133a bdbf 86b3 7abf
000001b0: da9e debe 86b9 44be 132a 6cbe f6a7 973f
000001c0: 409e 5a3e 5960 5a3e 0d98 93be b690 c6bf
000001d0: f9d0 fb3e 01b3 03bf bcee 66be 9d2f 393e
000001e0: f351 84be 4d02 bb3f 2daf 0d3f 260d 043f
000001f0: 0fa2 f53d cabe 7b3f ab57 ac3e 77ee 2ebe
0.082374796 0.24623218 0.4073335 -1.4100121 1.3058764 -1.4610175 -1.8832103 -1.7684257
0.4437705 -0.6093144 0.42203182 0.2107773 1.1606079 -0.49443945 0.22397402 0.41601434
-1.8607336 -0.004384435 0.13505049 0.08791736 0.05844255 0.35017386 1.9903177 -0.2286932
-0.620385 -0.2229389 0.8463246 -1.2651769 0.63921857 -0.97970676 -0.8243215 0.7636359
0.13066314 0.6101113 0.04828441 1.2155869 0.20119931 -0.59704804 0.036207773 0.57657933
-0.74310917 -0.17477942 0.25782424 0.9830954 -0.43975645 0.0071195834 -0.015410839 0.14201747
-0.18117966 0.3563509 -1.3015645 -2.2672403 -0.023742566 -0.4952503 -0.56289536 0.74801075
-1.5343714 0.077256836 -0.16359884 0.38528413 0.32221192 2.1085575 0.53683656 -0.6439943
2.0492632 0.32841778 0.6559225 0.61848825 -0.19507055 -1.6478513 -0.30541015 0.09467117
0.12781398 -0.83410996 0.54490894 -0.2334877 0.48858202 -0.18651098 -0.24973018 -0.9361547
0.48216665 -0.07421722 0.3209058 0.44372338 0.40088528 0.16112784 0.41026762 0.1644322
1.0645807 1.6284837 -0.40181252 2.9138758 1.734335 1.255153 -0.37178624 0.0046080286
-0.12735835 0.2172125 -0.4307423 -0.4207292 0.22980723 0.16071022 -0.3654105 0.00023857171
-0.048071858 0.7865644 -1.4783348 -0.9793018 -0.4348057 -0.19211397 -0.23062925 1.1848133
0.2134943 0.21325816 -0.28826943 -1.5512912 0.4918287 -0.51445013 -0.22552007 0.1808457
-0.25843772 1.4610077 0.5534542 0.5158256 0.11993801 0.98337996 0.33660635 -0.17083155
