AI/Image-Generation/PGGAN/model/64x64/generator_model/torgb_layers_4.pt (torch, 1411 bytes, 1 tensors)

conv.weight f4 [1, 64, 1, 1]
000000 04 1a 09 bf 6e a8 14 c0 47 a5 b3 bf 21 b9 8c bf
       -0.5355532 -2.3227801 -1.4034814 -1.0993997
000010 87 67 17 be 1f 93 7b 3e 28 09 09 3d aa 7c 87 3f
       -0.14785586 0.24567841 0.033455998 1.058492
000020 6b e2 40 bf 1c e7 e3 bf 49 13 66 3f 08 42 8b bf
       -0.75345486 -1.7804904 0.89873177 -1.0879526
000030 fd fd 03 3f 7d f7 81 bf 91 99 04 3e 93 b0 8e be
       0.5155943 -1.0153652 0.12949206 -0.2786909
000040 da 4b 41 bf 19 bb f4 be f9 54 d2 be a6 fd 1d bf
       -0.75506365 -0.47798994 -0.41080454 -0.6171516
000050 e9 76 03 40 74 1c 68 3f cc e2 cb bf c2 a9 90 be
       2.0541327 0.90668416 -1.5928588 -0.28254515
000060 6b f6 18 bf b3 cb 89 3e 8f 38 8f be 01 e0 4b bf
       -0.59751004 0.26913223 -0.27972838 -0.7963868
000070 0e b0 90 3f 06 37 3c bd b7 37 a8 3f d8 a5 21 bf
       1.1303728 -0.045950912 1.3142003 -0.6314368
000080 ef 47 32 3e fc c1 ec bd 62 6c a6 be 5c 68 44 3f
       0.17410253 -0.11560437 -0.32504565 0.7672174
000090 87 5e 2c c0 98 1a 93 be 8d 12 1c 3f 2d 2d b2 3e
       -2.6932695 -0.28731227 0.60965806 0.3480009
0000a0 b7 4a 2d 3d 98 f6 33 3f 71 9e 9a bf 5b d3 b0 3f
       0.04230758 0.7029815 -1.2079602 1.38145
0000b0 7e d0 ae bf 9d 58 08 c0 47 0d d1 3e 81 af 03 bf
       -1.3657377 -2.1304085 0.40830442 -0.5143967
0000c0 b0 18 df 3f 17 0b 0b 3f 77 3c 2b 3c ed 71 79 bd
       1.7429409 0.54313797 0.010451428 -0.060899664
0000d0 ed a2 ce bf 35 8f f9 3e 06 2d 52 bf 1a 7d 97 3e
       -1.6143471 0.4874207 -0.8209995 0.29587632
0000e0 eb 7f bf 3e e7 67 e3 3e a2 36 4c 3f 81 3f 20 3f
       0.3740228 0.4441521 0.79770863 0.625969
0000f0 22 1c 2f 3f 9f 1b a1 bf 94 d5 be bf ae 89 39 3f
       0.684023 -1.2586554 -1.4908929 0.7247571
