AI/Image-Generation/PGGAN/model/64x64/generator_model/torgb_layers_2.pt (torch, 1667 bytes, 1 tensors)

conv.weight f4 [1, 128, 1, 1]
-0.21932201 -1.6083564 0.48675945 -0.0008372566 0.42611367 -0.30904567 -0.93248063 -0.06518569
-0.07925703 -0.31122535 -0.1692873 0.3698062 0.035511475 -0.20687196 -0.06646472 0.06508551
0.04217032 -2.017128 0.10814655 -0.059541594 0.35237995 0.03956067 -1.9926541 0.24035971
-0.43539453 2.0508578 -0.0900304 0.03675746 -0.03933485 0.09589695 0.13811108 -0.29125533
-0.09097285 0.19171277 0.08823903 0.09244448 -1.6467149 0.1717082 -0.93531907 -0.030046511
0.112926565 1.4933804 0.573572 0.12453608 0.05196995 0.8464621 -1.8008987 -0.11480348
-0.6071811 -0.052115016 0.55582017 0.24216825 -0.02357902 -1.8604466 0.040748823 -0.08311085
1.3521653 -0.5626778 -0.31540602 1.4061282 -0.02377821 0.33383182 0.10810893 -0.23123546
0.39847046 0.062108226 -0.64380306 -0.20593627 0.003645963 -0.61464185 0.22033347 -1.2384492
-0.3707422 0.24652496 -0.84128094 -0.29596034 -0.7014392 0.79662913 1.02109 -0.08631164
0.10491692 2.0570583 1.5793263 0.18276975 -1.9630194 0.86186516 -0.99794036 -0.03361142
-1.053799 0.0748661 0.9575924 -1.1601973 1.1290846 -0.7285636 -0.6078444 -1.597476
-0.3583503 0.13219649 -1.383157 0.17114154 -0.13658556 0.33019048 -0.7669161 -0.1167135
0.7981956 0.9044752 -0.40061748 0.067966 0.19073941 -0.31468293 -0.24287431 -0.18138784
0.5373394 -0.74451566 0.03368899 0.09826297 -0.075978726 0.48252228 0.12673104 0.7313136
-0.24435976 0.17363393 0.19795574 -0.61895466 -0.06371464 -0.082822196 0.24642237 1.1396325
00000000: f395 60be 9fde cdbf 8938 f93e 577b 5bba
00000010: 922b da3e 3c3b 9ebe 0db7 6ebf 1380 85bd
00000020: 8251 a2bd ee58 9fbe a659 2dbe 3d57 bd3e
00000030: 7b74 113d 3ed6 53be a81e 88bd 8d4b 853d
00000040: c9ba 2c3d a018 01c0 f07b dd3d e3e1 73bd
00000050: 256b b43e 5e0a 223d 4a0f ffbf db20 763e
00000060: 08ec debe 4141 0340 dc61 b8bd fe8e 163d
00000070: 941d 21bd 9f65 c43d fe6c 0d3e 6b1f 95be
00000080: f94f babd 5a50 443e aab6 b43d 8853 bd3d
00000090: 8ec7 d2bf 46d4 2f3e 1271 6fbf 1a24 f6bc
000000a0: 0b46 e73d 1727 bf3f 9dd5 123f c60c ff3d
000000b0: 71de 543d bdb1 583f d983 e6bf 161e ebbd
000000c0: 3870 1bbf 8e76 55bd 3b4a 0e3f f4fa 773e
000000d0: ca28 c1bc 1d23 eebf 3de8 263d 0536 aabd
000000e0: c113 ad3f a70b 10bf e67c a1be 02fc b33f
000000f0: 85ca c2bc 01ec aa3e 3768 dd3d fdc8 6cbe
00000100: 5204 cc3e 3265 7e3d 47d0 24bf f5e0 52be
00000110: 1cf1 6e3b 2b59 1dbf 199f 613e 8185 9ebf
00000120: ecd1 bdbe 0a71 7c3e 305e 57bf 1d88 97be
00000130: 8591 33bf e3ef 4b3f 14b3 823f 28c4 b0bd
00000140: afde d63d d8a6 0340 5d27 ca3f fe27 3b3e
00000150: 3844 fbbf 32a3 5c3f 0579 7fbf 21ac 09bd
00000160: e3e2 86bf 6653 993d c724 753f 5881 94bf
00000170: d885 903f 2583 3abf b19b 1bbf 187a ccbf
00000180: b179 b7be 845e 073e 4a0b b1bf ba3f 2f3e
00000190: 16dd 0bbe ba0e a93e 9d54 44bf 7d07 efbd
000001a0: 8c56 4c3f b08b 673f bc1d cdbe c231 8b3d
000001b0: 3151 433e 1f1e a1be 0bb4 78be bcbd 39be
000001c0: 138f 093f 9498 3ebf 77fd 093d 193e c93d
000001d0: bc9a 9bbd 290d f73e c8c5 013e 5e37 3b3f
000001e0: 7239 7abe 18cd 313e e9b4 4a3e d073 1ebf
000001f0: d27c 82bd af9e a9bd 2556 7c3e 7adf 913f
