AI/Image-Generation/PGGAN/model/64x64/generator_model/torgb_layers_3.pt (torch, 1667 bytes, 1 tensors)

conv.weight f4 [1, 128, 1, 1]
-0.05699066 -0.2268961 0.1016041 -0.18913688 -0.064281546 -1.3414264 -1.4076961 -0.060655
-0.7571517 -0.47280598 0.1516987 -0.39669147 -0.7605936 -0.1491848 0.34674653 0.32980865
1.1686372 -0.76862997 0.7525519 -1.5945972 0.8579775 0.03511037 0.46320266 -0.7930786
-1.1538367 0.22821005 -0.16065489 -0.16199821 0.94472164 0.69045806 -0.39853802 -0.03980413
-0.017699476 -0.05544357 -1.4861188 0.9129174 0.1738859 -0.075882375 -0.08197183 -0.084694624
-0.50807536 0.034982197 -0.4739458 0.019629976 1.7166585 -0.024322534 -0.05183551 -1.2592311
0.2507814 0.33864215 -1.2681516 -1.1574751 -0.71153224 -1.928927 -0.00939193 0.49916473
-0.7893981 -0.22966959 0.012000515 -0.9648767 0.26020592 -1.181089 -0.9236852 3.391063
-0.041797515 0.04808375 -2.44882 -0.016400818 0.96857923 -1.7861559 -0.9317026 0.22076626
-0.43405083 -0.9422576 -1.5383106 -2.3081324 -2.3458982 -0.5267765 0.33597094 -0.05110216
1.3564782 1.1905851 0.87288064 -0.23744301 -0.05712475 -2.1856573 -0.07708747 1.6066734
-0.79688704 -0.26440114 0.32559985 -0.8254181 -0.7509724 -1.0740035 0.38721156 0.80731267
-0.071226776 0.39174202 -1.849234 -1.7876776 0.5687847 0.14493412 -0.03319964 0.6528853
-0.8652079 -0.027469296 0.03262443 0.030364016 0.063763335 -0.08254192 0.20650671 0.089004435
2.2611656 -0.06359204 0.056771558 -1.093461 -0.5232413 -0.024646865 -0.36484697 -0.39997095
-0.5376473 0.819359 -0.4492402 0.5306292 1.0884866 0.2880622 0.5472216 0.5840251
00000000: 0a6f 69bd 7457 68be cf15 d03d 19ad 41be
00000010: 0ba6 83bd dcb3 abbf 632f b4bf 6171 78bd
00000020: b2d4 41bf a013 f2be e756 1b3e 251b cbbe
00000030: 43b6 42bf e6c3 18be c388 b13e aedc a83e
00000040: e795 953f efc4 44bf 3ea7 403f c31b ccbf
00000050: 6aa4 5b3f e4cf 0f3d e628 ed3e 3307 4bbf
00000060: ecb0 93bf e5af 693e b782 24be dce2 25be
00000070: 47d9 713f dcc1 303f 2d0d ccbe a809 23bd
00000080: 7efe 90bc cc18 63bd 2439 bebf f4b4 693f
00000090: 250f 323e 3868 9bbd d9e0 a7bd 6074 adbd
000000a0: 3a11 02bf 7e49 0f3d 06a9 f2be 0bcf a03c
000000b0: 77bb db3f 0d40 c7bc 7951 54bd 7c2e a1bf
000000c0: 6b66 803e 8162 ad3e cb52 a2bf 2528 94bf
000000d0: fa26 36bf 14e7 f6bf 9ce0 19bc 8592 ff3e
000000e0: fe15 4abf 812e 6bbe cf9d 443c 2902 77bf
000000f0: b639 853e ed2d 97bf a276 6cbf 2d07 5940
00000100: df33 2bbd 77f3 443d 78b9 1cc0 025b 86bc
00000110: cff4 773f c2a0 e4bf 1084 6ebf 8d10 623e
00000120: e93b debe cb37 71bf 5de7 c4bf 71b8 13c0
00000130: 3223 16c0 d3da 06bf 6204 ac3e 8050 51bd
00000140: 14a1 ad3f 1865 983f 1b75 5f3f 4324 73be
00000150: a4fb 69bd cfe1 0bc0 09e0 9dbd 79a7 cd3f
00000160: ca00 4cbf 965f 87be 06b5 a63e 9a4e 53bf
00000170: ba3f 40bf f278 89bf 9840 c63e 0bac 4e3f
00000180: 58df 91bd 6992 c83e b3b3 ecbf 9fd2 e4bf
00000190: e09b 113f 9c69 143e 59fc 07bd 7e23 273f
000001a0: 447e 5dbf 4a07 e1bc 32a1 053d f5bd f83c
000001b0: 5a96 823d bd0b a9bd 7f76 533e f547 b63d
000001c0: f0b6 1040 8b3c 82bd 4b89 683d 88f6 8bbf
000001d0: 24f3 05bf 39e8 c9bc 39cd babe fec8 ccbe
000001e0: 41a3 09bf 83c1 513f d002 e6be 51d7 073f
000001f0: 8753 8b3f e47c 933e b716 0c3f ab82 153f
